static/model/gesture_model.tflite (tflite, 349832 bytes, 18 tensors)

arith.constant f4 [96]
0	0xbd1814f7	-0.03712937
1	0x3d0165ce	0.03159123
2	0x3d0d3c98	0.034481615
3	0xbcaecadd	-0.021336967
4	0xbd2ee897	-0.042702284
5	0xbd9f633f	-0.077826016
6	0xbd6b8de3	-0.05750836
7	0x3b940b01	0.0045179133
8	0xbd6233a0	-0.055225015
9	0xbce6f5e7	-0.028193427
10	0x3c1d3433	0.009594965
11	0x3bdfa016	0.0068245037
12	0xbd06c939	-0.032906745
13	0xbd3c62b4	-0.045992568
14	0xbd4bd7dc	-0.049766406
15	0x3d6b8c57	0.057506885
16	0xbd138be9	-0.0360221
17	0x3c477180	0.012173057
18	0x00000000	0.0
19	0xbd4f01c9	-0.05053881
20	0xbbc833de	-0.0061096987
21	0xbd86f54b	-0.06589755
22	0xbcd247cd	-0.025669003
23	0xbbd9e777	-0.006649907
24	0xbbf44a6b	-0.0074551604
25	0x3d909502	0.07059671
26	0xbd6c8b3b	-0.057749968
27	0x3d2afd9b	0.041745763
28	0xbc6faf06	-0.014629131
29	0xbb0d4e33	-0.0021561503
30	0xbcb41cdb	-0.021986416
31	0xbcb79869	-0.022411542
32	0xbc696432	-0.01424508
33	0xbc99efd2	-0.018791113
34	0xbd76c9d1	-0.06025106
35	0x3d20fe1b	0.039304834
36	0xbc0e4afb	-0.008684869
37	0x3d95f05e	0.07321237
38	0x3ce954b3	0.02848277
39	0x3d95cdb2	0.07314624
40	0x3da9d840	0.082931995
41	0xbd1f92f5	-0.03895851
42	0xbc0e6f2b	-0.008693497
43	0xbd28b688	-0.0411897
44	0xbd0bc0cd	-0.034119416
45	0xbcd547e3	-0.026035255
46	0xbcb2d9ba	-0.021832336
47	0xbc5c6b4c	-0.013453316
48	0xbbcf8fb8	-0.0063342713
49	0xbd6c4db8	-0.057691306
50	0x3d825067	0.06362992
51	0xbd969f67	-0.07354622
52	0xbc353c19	-0.011061692
53	0xbd54dfdf	-0.051971313
54	0xba4b99f9	-0.0007766779
55	0xbd249224	-0.040178433
56	0xbc793ceb	-0.015212278
57	0xbb4a17f0	-0.0030837022
58	0x3d0e4649	0.034734998
59	0x3d2e3d86	0.042539142
60	0xbd3ec68c	-0.046576068
61	0x3b92e911	0.00448335
62	0xbd3c01bc	-0.04590009
63	0xbc26074b	-0.010133575
64	0xbd317b50	-0.04333049
65	0xbbfeb182	-0.0077726254
66	0xbc3387e6	-0.010957694
67	0xbd1486fd	-0.036261547
68	0xb9f7b2a8	-0.0004724462
69	0xbcee14f9	-0.029062735
70	0xbc21d0d2	-0.009876447
71	0x3c96e4d0	0.018419653
72	0xbd0a82d1	-0.033816162
73	0x3d25b6d3	0.040457558
74	0x3cbbb6ea	0.022914369
75	0x3c182891	0.009287016
76	0xbd144eb1	-0.03620786
77	0x3c6392aa	0.013889948
78	0xbc581c00	-0.0131902695
79	0x3d2e350a	0.04253105
80	0x3d1b5207	0.037920024
81	0xbc99cb71	-0.018773766
82	0xbca0863d	-0.01959526
83	0x3ccb772b	0.024837097
84	0xbc349ba4	-0.011023436
85	0xbcd1d8a7	-0.025616003
86	0xbc6f73c6	-0.014615005
87	0xbc95b750	-0.018275887
88	0x3d4881ac	0.04895179
89	0xbcb12fbc	-0.021629207
90	0xbc9a0393	-0.018800532
91	0xbc9091a6	-0.017647576
92	0xbd1eb84e	-0.038749985
93	0x3c480947	0.012209243
94	0xbd0c594f	-0.03426486
95	0x3c68e5f0	0.014214978

arith.constant1 f4 [1, 1, 64]
0	0x3eac4b34	0.33651125
1	0x3f79e173	0.97609633
2	0x3ec26f2f	0.3797545
3	0x3f8f6c22	1.1204875
4	0x3eb38f85	0.35070434
5	0x3ec4ba6d	0.38423482
6	0x3fc5a9b1	1.5442411
7	0x3fa3ed3c	1.2806773
8	0x3fbe9bb8	1.4891272
9	0x3eb58647	0.35454008
10	0x3ed455a5	0.41471592
11	0x3fca67e8	1.581296
12	0x3f985fc7	1.1904229
13	0x3fab7dfc	1.3397822
14	0x3ea913ad	0.33022824
15	0x3fc66396	1.5499141
16	0x3ed20d9d	0.4102601
17	0x3f840126	1.031285
18	0x3ecb27c5	0.3967878
19	0x3f873095	1.0561701
20	0x3eb09801	0.3449097
21	0x3e994be2	0.29940706
22	0x3faaeda0	1.3353767
23	0x3f93f3ba	1.1558754
24	0x3fcf3645	1.6188437
25	0x3e9d830e	0.3076405
26	0x3ee467b5	0.44610372
27	0x3f85fc88	1.0467691
28	0x3fa3164c	1.274118
29	0x3fb81a1e	1.438297
30	0x3e87fd9b	0.26560673
31	0x3fa33b82	1.2752535
32	0x3efe1a5d	0.4962949
33	0x3f85d81d	1.0456578
34	0x3e9e13d0	0.3087449
35	0x3f89c3e8	1.0762911
36	0x3e9fb5b0	0.31193304
37	0x3ec40a37	0.38289043
38	0x3f9f3426	1.243779
39	0x3f9c1306	1.2193305
40	0x3fb6ebb8	1.4290686
41	0x3ea7c95e	0.32770818
42	0x3ec0340f	0.37539718
43	0x3f908474	1.1290421
44	0x3f8949ac	1.0725608
45	0x3fba9995	1.457812
46	0x3e9925cb	0.29911646
47	0x3fa75487	1.3072671
48	0x3e92e2bb	0.28688607
49	0x3f8517df	1.039791
50	0x3edb6d6b	0.42856917
51	0x3fa0dd94	1.256762
52	0x3eaf7d07	0.34275076
53	0x3efeaf38	0.49743056
54	0x3fa0a443	1.2550129
55	0x3f9fe44e	1.2491548
56	0x3fb61ec6	1.4228141
57	0x3ed87258	0.42274737
58	0x3f290438	0.6602206
59	0x3fa670b8	1.3003149
60	0x3fa3ccfa	1.2796929
61	0x3fa5f91b	1.2966646
62	0x3eb103df	0.34573266
63	0x3fc129d3	1.5090889

arith.constant2 f4 [1, 1, 64]
0	0x3da0561c	0.07828924
1	0xbc1490c6	-0.00906772
2	0x3d88f33c	0.06687018
3	0xbcec8b7f	-0.02887511
4	0x3d968e66	0.07351379
5	0x3d54284c	0.051796243
6	0x3d83f699	0.06443519
7	0xbce2a14e	-0.027664807
8	0xbd195f77	-0.037444558
9	0xbcf5d7ae	-0.03001007
10	0x3d222c0e	0.039592795
11	0xb92c9c48	-0.00016461418
12	0xbd7b6b24	-0.061381474
13	0x3e3c3e54	0.18383151
14	0x3da68ede	0.081327185
15	0x3e2062f6	0.1566275
16	0xbc2f6d66	-0.010707235
17	0x3b1be9e3	0.002379053
18	0x3b84f2ab	0.0040572486
19	0x3cec5b76	0.028852206
20	0x3daed40b	0.08536538
21	0x3d7a3c46	0.061092637
22	0x3e09477b	0.13406174
23	0xbc8225c2	-0.015887145
24	0x3d423e37	0.047422614
25	0xbbc085dc	-0.0058753323
26	0x3d4e31af	0.05034035
27	0xbd2a1ac1	-0.04152942
28	0x3b376afa	0.0027987347
29	0x3da2b0d8	0.079438865
30	0x3d22b2e6	0.039721392
31	0x3e5d1a5f	0.21592091
32	0xbcb11e22	-0.021620814
33	0x3dbc36ee	0.091901645
34	0x3d39b359	0.045337055
35	0x3db9267d	0.09040544
36	0x3d364276	0.044496976
37	0x3d5a2458	0.053257316
38	0x3e039d25	0.12852915
39	0x3db74e76	0.08950512
40	0x3e174d03	0.14775471
41	0x3d85e07f	0.0653696
42	0x3c938fc7	0.018012894
43	0xbd3b93bf	-0.0457952
44	0x3d8a1f2e	0.06744228
45	0x3da714b7	0.08158248
46	0x3d361633	0.044454765
47	0x3e60b96e	0.21945736
48	0x3d2aa7c5	0.041663904
49	0x3cf9d596	0.030497354
50	0x3d8675b1	0.065654166
51	0x3deb73b2	0.114966765
52	0x3cf43155	0.02980868
53	0xbb3acb7c	-0.0028502634
54	0x3d282b39	0.041056845
55	0xbd84a0d8	-0.06475991
56	0x3dfbe080	0.12298679
57	0x3c78da2f	0.015188738
58	0x3d29b0ad	0.041428257
59	0xbbd78692	-0.0065773213
60	0xbd588172	-0.052857824
61	0x3e158023	0.14599662
62	0x3d648d46	0.05579879
63	0x3e125a64	0.14292294

arith.constant13 f4 [224]
0	0xbd735b92	-0.0594135
1	0xbd94cebd	-0.07265995
2	0xbd9f32e7	-0.07773381
3	0xbd9a0575	-0.07520572
4	0xbd82314d	-0.0635706
5	0xbc0eedab	-0.008723657
6	0xbd3dc9fd	-0.04633521
7	0xbce2ae13	-0.027670896
8	0xbd9397c5	-0.07206682
9	0xbd7ee7eb	-0.062232893
10	0xbddee8a4	-0.108842164
11	0xbd486a9d	-0.0489298
12	0xbdae7e73	-0.08520212
13	0xbd58fa79	-0.052973244
14	0xbd28b8ca	-0.041191854
15	0xbd3c5064	-0.045975104
16	0xbd138ee4	-0.036024943
17	0xbd18906b	-0.037247103
18	0xbd275e2f	-0.040861305
19	0xbda124bb	-0.07868334
20	0xbd6dad67	-0.058026697
21	0xbdabf599	-0.083964534
22	0xbd70edff	-0.05882072
23	0xbc2b3aed	-0.010451061
24	0xbd19b102	-0.037522323
25	0xbd5ff1f0	-0.05467409
26	0xbd21468b	-0.039373916
27	0xbdbb9cdd	-0.09160779
28	0xbd1a91f4	-0.037736848
29	0xbd2ef1bf	-0.042711016
30	0xbd150351	-0.036380116
31	0xbdc28098	-0.094971836
32	0xbd65759f	-0.056020375
33	0xbd0528b5	-0.032509524
34	0xbc308bc4	-0.01077551
35	0xbd2719d9	-0.040796135
36	0xbd1b170f	-0.037863787
37	0xbc668362	-0.01406941
38	0xbd22d966	-0.03975811
39	0xbd096905	-0.03354742
40	0xbcb6b6e8	-0.022304013
41	0xbd9a980a	-0.075485304
42	0xbc0458ae	-0.0080777835
43	0xbd4da3ba	-0.05020497
44	0xbc7151de	-0.014728991
45	0xbd464c7a	-0.048412777
46	0xbdc1377d	-0.09434412
47	0xbdb11dd8	-0.0864827
48	0xbd33e9ea	-0.04392425
49	0xbd851f50	-0.06500113
50	0xbd5398ec	-0.05165951
51	0xbccca744	-0.024982102
52	0xbbb0ef2b	-0.005399605
53	0xbd0f4968	-0.034982115
54	0xbd7eccf6	-0.062207185
55	0xbd13a5cb	-0.036046784
56	0xbce8904a	-0.028389115
57	0xbd468d94	-0.048474863
58	0xbd534576	-0.051579915
59	0xbceba05b	-0.028762987
60	0xbdc3ae15	-0.09554688
61	0xbc4d2cd2	-0.012522893
62	0xbd537053	-0.051620793
63	0xbbd2d9c1	-0.0064346497
64	0xbdcd9b8b	-0.10039433
65	0xbd04e6ac	-0.03244655
66	0xbce0b361	-0.027429285
67	0xbd917dbe	-0.071040615
68	0xbcc54fdc	-0.024085931
69	0xbcef1e2f	-0.029189197
70	0xbd1a6e1b	-0.03770266
71	0xbd9793a6	-0.074012086
72	0xbd85d0ba	-0.06533952
73	0xbd1c3810	-0.038139403
74	0xbd73be7e	-0.05950784
75	0xbda0009b	-0.078126155
76	0xbd1a953e	-0.037739985
77	0xbdb34fa8	-0.087554276
78	0xbd7c38f8	-0.061577767
79	0xbca8fdef	-0.020628897
80	0xbbc0b5db	-0.005881054
81	0xbcc523cb	-0.024064919
82	0xbd516798	-0.051124185
83	0xbda8d49e	-0.082436785
84	0xbca1cdf8	-0.019751534
85	0xbda11fb0	-0.07867372
86	0x3c152b73	0.009104597
87	0xbdb89aac	-0.09013876
88	0xbd9717d6	-0.07377593
89	0xbd67382f	-0.056450065
90	0xbcddda00	-0.02708149
91	0xbcd6c9c4	-0.026219256
92	0xbab6c1df	-0.0013943276
93	0xbd084d7d	-0.033277024
94	0xbd225ffa	-0.03964231
95	0xbd3d7191	-0.046250883
96	0xbd7fa1e0	-0.062410235
97	0xbd77b4e8	-0.06047526
98	0xbca3a1fc	-0.019974701
99	0xbcd82b58	-0.026387855
100	0xbc6de4f5	-0.01451992
101	0xbd95539a	-0.07291336
102	0xbd919123	-0.07107761
103	0xbd6ca56b	-0.057774942
104	0x3c401272	0.011723148
105	0xbd9287cf	-0.0715481
106	0xbd821bcd	-0.06352959
107	0xbd91cd97	-0.07119291
108	0xbd043bf2	-0.03228373
109	0xbd6ff87d	-0.058586586
110	0xbd8684ab	-0.06568273
111	0xbd1dac4b	-0.03849439
112	0xbd6acc48	-0.057323724
113	0xbd33bea4	-0.04388298
114	0xbd97978e	-0.07401954
115	0xbcfb0673	-0.030642724
116	0xbd3be55f	-0.045873042
117	0xbd9e1a64	-0.07719877
118	0xbce6202b	-0.02809151
119	0xbd372196	-0.044709764
120	0xbd8e51fd	-0.06949232
121	0xbd3a24b3	-0.045445155
122	0xbce44998	-0.027867123
123	0xbd087ca3	-0.033321988
124	0xbca5967f	-0.020213364
125	0xbd721694	-0.059103563
126	0xbac30198	-0.0014877794
127	0xbd2a900a	-0.041641273
128	0xbd552023	-0.0520326
129	0xbd28e364	-0.04123248
130	0xbc9d964c	-0.019236706
131	0xbdd02dd2	-0.101649895
132	0xbd729263	-0.059221637
133	0xbd4f45a2	-0.050603516
134	0xbd14026a	-0.036135115
135	0xbbd6c10f	-0.006553776
136	0xbd3de0ef	-0.04635709
137	0xbd162b34	-0.036662295
138	0xbd857dc7	-0.06518131
139	0xbd890a92	-0.06691469
140	0xbd26f24a	-0.04075841
141	0xbce41dab	-0.027846178
142	0xbd518e21	-0.051160935
143	0xbde0d63c	-0.10978362
144	0xbd682166	-0.056672476
145	0xbd2059f3	-0.039148282
146	0xbdadf39f	-0.08493733
147	0xbd5ef006	-0.054428123
148	0xbdb1d995	-0.086840786
149	0xbca4171a	-0.020030547
150	0xbd30376f	-0.043021616
151	0xbd57a945	-0.052651662
152	0xbdca5e3b	-0.09881254
153	0xbc4a9c14	-0.0123663135
154	0xbd32fbba	-0.043697096
155	0xbda7d693	-0.08195224
156	0xbd9c6aa8	-0.076375306
157	0xbccd95aa	-0.02509578
158	0xbd5dc470	-0.054142416
159	0xbd88fea3	-0.06689193
160	0xbd4c387c	-0.049858555
161	0xbc4cf47d	-0.012509462
162	0xbc491676	-0.0122734215
163	0x3bc842b1	0.006111466
164	0xbba7b0d3	-0.0051175146
165	0xbd9d3f40	-0.076780796
166	0xbcc544c5	-0.024080643
167	0xbd040ca0	-0.032238603
168	0xbd9b53f4	-0.07584372
169	0xbc6c8de8	-0.01443813
170	0xbd7793d7	-0.060443725
171	0xbd3775f2	-0.044790216
172	0xbd01d5b2	-0.031697936
173	0xbd29016f	-0.041261133
174	0xbc953791	-0.018214973
175	0xbd152033	-0.03640766
176	0xbce8649f	-0.028368292
177	0xbcd2916a	-0.025704104
178	0xbd4310aa	-0.047623314
179	0xbcc67e08	-0.024230018
180	0xbd52db69	-0.051478777
181	0xbc84f2e8	-0.016229108
182	0xbd987412	-0.07444014
183	0xbdc249c7	-0.09486728
184	0xbd569805	-0.05239107
185	0xbd611ea3	-0.054960858
186	0xbd174701	-0.03693295
187	0xbd892f92	-0.066985264
188	0xbd15c1c4	-0.036561742
189	0xbd8bbde6	-0.0682333
190	0xbd38e6e2	-0.045142062
191	0xbd48b2fe	-0.048998825
192	0xbd6f6bbd	-0.058452357
193	0xbdc13d06	-0.094354674
194	0xbd828533	-0.06373062
195	0xbd09590a	-0.03353218
196	0xbc6eed54	-0.014582951
197	0xbcfdf15a	-0.030998874
198	0xbdd14c4a	-0.10219629
199	0xbd8fe26d	-0.07025609
200	0xbd8daed9	-0.06918115
201	0xb91c90cc	-0.0001493126
202	0xbd8faecd	-0.070157625
203	0xbc3839ba	-0.011244232
204	0xbca59fa9	-0.020217733
205	0xbd543347	-0.051806714
206	0xbd8d4d62	-0.06899525
207	0xbc3026f4	-0.010751475
208	0xbdcb885b	-0.09938117
209	0xbd0e4988	-0.034738094
210	0xbcd49a94	-0.025952615
211	0xbd3206b1	-0.043463413
212	0xbcf13847	-0.02944578
213	0xbd9e61e4	-0.07733515
214	0xbcf64ce7	-0.030065967
215	0xbda7f94f	-0.08201849
216	0xbd338ef6	-0.04383751
217	0xbd28bd1d	-0.041195977
218	0xbd3f2ab8	-0.0466716
219	0xbd5ac28e	-0.053408198
220	0xbc027941	-0.0079634795
221	0xbc84f12d	-0.016228283
222	0xbdd4c38b	-0.10388859
223	0xbd66f448	-0.05638531

arith.constant14 f4 [12]
0	0x3d8fe8f5	0.07026855
1	0xbc89d63c	-0.016825788
2	0x3cd8c862	0.026462737
3	0x3ccb080b	0.024784109
4	0xbd8b4046	-0.067993686
5	0xbb3accb8	-0.002850337
6	0x3d193830	0.0374071
7	0xbcd9e451	-0.026598128
8	0x3d0bca21	0.034128312
9	0xbe0f6e5a	-0.1400694
10	0xbcc85a77	-0.0244572
11	0x3c2ef68b	0.010678898

arith.constant15 f4 [64]
0	0x3c91db5b	0.017804792
1	0x3cc24fff	0.023719786
2	0x3c813348	0.015771523
3	0x3c3015e6	0.0107474085
4	0x3c794ac0	0.015215576
5	0x3c8eb4bc	0.017420165
6	0x3ca2855d	0.019838983
7	0xbcf3bd6c	-0.02975341
8	0x3bfd2d81	0.0077263718
9	0x3cd72511	0.026262792
10	0x3c8ef72f	0.01745185
11	0xbc3f4c65	-0.011675929
12	0xbcd6268e	-0.026141431
13	0xbca75a84	-0.020428903
14	0x3caef1b3	0.021355486
15	0xbd13d12b	-0.03608815
16	0x3cb178c2	0.021664027
17	0x3c8f0ad7	0.017461224
18	0x3c902985	0.017597923
19	0x3b9b567a	0.0047405334
20	0x3c99d483	0.018778091
21	0x3c98316b	0.018578252
22	0x3c54f2e8	0.0129973665
23	0xbd2ac0ed	-0.041687895
24	0x3bc9bf20	0.006156817
25	0x3c9f2f10	0.01943162
26	0x3c2e293c	0.010629948
27	0xbb813b4c	-0.0039438363
28	0xbcc6cb2d	-0.024266804
29	0xbcab1623	-0.020884579
30	0x3caaa28f	0.020829467
31	0xbd3f8bd2	-0.046764202
32	0x3cdd0af2	0.026982758
33	0x3c52d94f	0.012869193
34	0x3ca3da27	0.020001484
35	0xbbad1ea0	-0.005283192
36	0x3c622c68	0.013804533
37	0x3c9e42f5	0.019319037
38	0x3c020e30	0.007937953
39	0xbd2c20f1	-0.042023603
40	0x3ba79004	0.0051136035
41	0x3c61ffa5	0.013793861
42	0x3cac49b5	0.02103124
43	0xbc5bf391	-0.01342477
44	0xbd12bd10	-0.035824835
45	0xbcb7ee3f	-0.022452472
46	0x3ca98f76	0.02069829
47	0xbd28c967	-0.041207697
48	0x3ca340c3	0.019928342
49	0x3ca7476c	0.020419799
50	0x3c217681	0.009854914
51	0x3ba28720	0.004959956
52	0x3caa4909	0.020786779
53	0x3cbebc70	0.023283213
54	0x3c3e5ee3	0.011619302
55	0xbd00e0a1	-0.031464223
56	0xba4a2953	-0.0007711846
57	0x3ca0abec	0.019613229
58	0x3cd2d3f9	0.025735842
59	0xbc3b5594	-0.011433978
60	0xbcdac631	-0.026705833
61	0xbcf8dc80	-0.03037858
62	0x3ca23341	0.01979983
63	0xbd13f71b	-0.03612433

arith.constant16 f4 [2, 16]
0	0x3860b1a8	5.3571217e-05
1	0xb909ef1a	-0.0001315441
2	0x39645441	0.00021775161
3	0xb76896ba	-1.3863371e-05
4	0x392de523	0.00016583926
5	0x3973eb2c	0.00023261894
6	0xb83c1c2a	-4.4848923e-05
7	0xb95d9af4	-0.00021133927
8	0x38a5c3fa	7.9043166e-05
9	0x38da9284	0.00010422341
10	0xb80af1c9	-3.3126944e-05
11	0xb9844e87	-0.0002523551
12	0x379e4f36	1.8871953e-05
13	0x3805d00b	3.1903426e-05
14	0x39008c5f	0.00012259324
15	0x391b5f5e	0.00014817479
16	0x3952b817	0.0002009574
17	0x3996f6cd	0.0002879411
18	0x38e99d7b	0.00011139639
19	0xb987a010	-0.00025868462
20	0x39b2632a	0.0003402469
21	0xb970f97a	-0.00022981121
22	0xb8b767b5	-8.745437e-05
23	0xb8d6a290	-0.00010234595
24	0xb9171e5e	-0.00014411795
25	0x38a1cb3e	7.714935e-05
26	0xb9824741	-0.0002484862
27	0x395624c2	0.00020422324
28	0x3880100f	6.106507e-05
29	0xb9025ebe	-0.0001243306
30	0x39aa57f0	0.00032490445
31	0xb96b6195	-0.00022447699

arith.constant17 f4 [2, 16]
0	0xbe4dbd77	-0.20091806
1	0x3e55f323	0.2089353
2	0xbe843a6f	-0.2582583
3	0x3ea92af9	0.33040598
4	0xbe580906	-0.21097192
5	0xbeae49bc	-0.3404063
6	0x3e90ef36	0.28307503
7	0x3e9cca5e	0.30623144
8	0x3d06eedb	0.032942634
9	0xbdcc8bf5	-0.09987632
10	0xbe6ee6b6	-0.23330197
11	0x3e8da3ae	0.2766394
12	0xbe4cac8c	-0.19987696
13	0xbe4b5568	-0.19856799
14	0xbe8a0d5a	-0.2696331
15	0xbdefd421	-0.11710382
16	0x3e5145f5	0.20436843
17	0x3ea6d770	0.3258624
18	0x3e7b0d02	0.24516681
19	0xbe6a8fb2	-0.22906378
20	0x3e54abf6	0.20768723
21	0xbe709a0c	-0.23496264
22	0xbe6dee20	-0.23235369
23	0xbe577693	-0.21041326
24	0xbe41e30e	-0.1893427
25	0x3c64637a	0.013939733
26	0xbe69b3d2	-0.22822502
27	0x3e83c239	0.25734118
28	0x3e57d14b	0.21075933
29	0x3d6c0ea6	0.057631157
30	0x3e87828d	0.2646679
31	0xbe6825dc	-0.22670692

arith.constant18 f4 [2, 16]
0	0xbc210011	-0.009826676
1	0x3caaddaa	0.02085765
2	0x3c56a2cb	0.013100336
3	0x3c575455	0.013142665
4	0x3ca3c970	0.019993514
5	0x3c61d911	0.013784663
6	0xbcd12e56	-0.02553479
7	0x3c03a54e	0.008035017
8	0xbbf5e5cc	-0.0075042006
9	0x3badeec3	0.0053080036
10	0x3c8c70a9	0.017143564
11	0x3a9786a0	0.0011560507
12	0xbb3675be	-0.0027841176
13	0x3c36eb8d	0.011164558
14	0x3d1b18a5	0.0378653
15	0x3d0ee216	0.03488358
16	0xbca74d5c	-0.02042263
17	0x3cd08cdc	0.025457792
18	0xb9fb5603	-0.00047938534
19	0xbca1019b	-0.019654086
20	0x3b1baa7b	0.0023752737
21	0xbcac3ad6	-0.021024149
22	0x3d2be89d	0.041969884
23	0xbb4bc8ed	-0.0031095103
24	0xbb8d3810	-0.0043096617
25	0x3a12bfb8	0.00055980263
26	0xbb6b4e22	-0.0035904725
27	0x3ca9d7f9	0.020732867
28	0x3ca6a05e	0.02034014
29	0x3c66313c	0.014049824
30	0x3b8a7f4d	0.004226601
31	0x3c68ca18	0.014208339

arith.constant23 f4 [16]
0	0xbc247974	-0.010038722
1	0xbd388a89	-0.045053992
2	0xbc4be3ce	-0.01244445
3	0xbce33478	-0.02773498
4	0xbcc9af43	-0.024619704
5	0xbcc9003c	-0.024536245
6	0xbb1a1bb4	-0.0023515048
7	0xbc8d8213	-0.017273938
8	0x3d11c34c	0.03558664
9	0xbc71a3f3	-0.014748561
10	0xbd2454a7	-0.040119793
11	0xbd1f723c	-0.0389273
12	0xbcce39f3	-0.025174117
13	0xbd0a7ccd	-0.033810426
14	0xbc58bdad	-0.013228816
15	0x3d0ff1eb	0.03514282

tfl.pseudo_qconst i1 [64, 32]
0	0xc3	-61
1	0x96	-106
2	0xd1	-47
3	0x03	3
4	0xa1	-95
5	0x48	72
6	0xe0	-32
7	0xdd	-35
8	0xbd	-67
9	0xe0	-32
10	0x8a	-118
11	0x81	-127
12	0xfa	-6
13	0xc9	-55
14	0x3d	61
15	0xe6	-26
16	0x2c	44
17	0xc2	-62
18	0x3a	58
19	0x27	39
20	0x0e	14
21	0x2b	43
22	0xde	-34
23	0x7a	122
24	0xe9	-23
25	0x52	82
26	0xec	-20
27	0x02	2
28	0x04	4
29	0x1c	28
30	0x85	-123
31	0xa6	-90
32	0x0a	10
33	0xe9	-23
34	0x05	5
35	0x2e	46
36	0xb4	-76
37	0xba	-70
38	0x20	32
39	0x52	82
40	0xf7	-9
41	0x1d	29
42	0x22	34
43	0xdc	-36
44	0xba	-70
45	0x08	8
46	0xd3	-45
47	0xb9	-71
48	0x7f	127
49	0xc2	-62
50	0xff	-1
51	0x88	-120
52	0x33	51
53	0xbb	-69
54	0xb7	-73
55	0x44	68
56	0x02	2
57	0x12	18
58	0x9e	-98
59	0x39	57
60	0x11	17
61	0xdb	-37
62	0x0f	15
63	0xec	-20
64	0xf9	-7
65	0x94	-108
66	0x14	20
67	0x36	54
68	0xd4	-44
69	0x30	48
70	0xbf	-65
71	0xb7	-73
72	0x78	120
73	0xc0	-64
74	0xbc	-68
75	0xa5	-91
76	0xc4	-60
77	0xb6	-74
78	0x2a	42
79	0xb4	-76
80	0x03	3
81	0xef	-17
82	0x28	40
83	0x5f	95
84	0x03	3
85	0x13	19
86	0xaf	-81
87	0xcf	-49
88	0x27	39
89	0x88	-120
90	0xcd	-51
91	0xfd	-3
92	0x81	-127
93	0x20	32
94	0xe6	-26
95	0xb2	-78
96	0xf0	-16
97	0x44	68
98	0x07	7
99	0x32	50
100	0xd0	-48
101	0x1e	30
102	0xe8	-24
103	0x49	73
104	0x33	51
105	0x08	8
106	0xad	-83
107	0xe2	-30
108	0xbb	-69
109	0xbe	-66
110	0x50	80
111	0x4d	77
112	0x0b	11
113	0x09	9
114	0x38	56
115	0x7f	127
116	0xc9	-55
117	0xee	-18
118	0x18	24
119	0x3a	58
120	0x11	17
121	0xd8	-40
122	0xea	-22
123	0x02	2
124	0xa7	-89
125	0x30	48
126	0x1f	31
127	0xc2	-62
128	0x26	38
129	0x1f	31
130	0x51	81
131	0x0c	12
132	0xe7	-25
133	0xac	-84
134	0x52	82
135	0xc3	-61
136	0x14	20
137	0x12	18
138	0x96	-106
139	0x9e	-98
140	0x15	21
141	0xdd	-35
142	0x2d	45
143	0x12	18
144	0x53	83
145	0x39	57
146	0x09	9
147	0xe1	-31
148	0x34	52
149	0x9f	-97
150	0x96	-106
151	0xfc	-4
152	0x49	73
153	0x2d	45
154	0xde	-34
155	0x81	-127
156	0x02	2
157	0x0c	12
158	0x8a	-118
159	0x1a	26
160	0xd8	-40
161	0x95	-107
162	0x5b	91
163	0xe6	-26
164	0x6e	110
165	0x32	50
166	0x26	38
167	0xdb	-37
168	0xef	-17
169	0x09	9
170	0xe4	-28
171	0xd5	-43
172	0x19	25
173	0xb7	-73
174	0xcd	-51
175	0x81	-127
176	0x0d	13
177	0x45	69
178	0xd8	-40
179	0x73	115
180	0x1f	31
181	0x61	97
182	0x87	-121
183	0x3a	58
184	0x01	1
185	0x62	98
186	0x09	9
187	0x98	-104
188	0xfd	-3
189	0xe5	-27
190	0x3c	60
191	0x60	96
192	0x38	56
193	0xe6	-26
194	0x31	49
195	0xfb	-5
196	0x19	25
197	0xe5	-27
198	0xf9	-7
199	0x47	71
200	0x06	6
201	0xf7	-9
202	0xc0	-64
203	0x3c	60
204	0xe5	-27
205	0x03	3
206	0xdb	-37
207	0x81	-127
208	0xc0	-64
209	0x6f	111
210	0x5a	90
211	0xa2	-94
212	0x19	25
213	0xfd	-3
214	0x4c	76
215	0x4a	74
216	0x2f	47
217	0xad	-83
218	0xa9	-87
219	0x10	16
220	0x60	96
221	0x2a	42
222	0x9a	-102
223	0x4a	74
224	0x45	69
225	0x37	55
226	0x0d	13
227	0xb7	-73
228	0x76	118
229	0x02	2
230	0x19	25
231	0xfe	-2
232	0xa7	-89
233	0x00	0
234	0xa8	-88
235	0xcf	-49
236	0x07	7
237	0x15	21
238	0x66	102
239	0x7f	127
240	0x2a	42
241	0xeb	-21
242	0xff	-1
243	0xcc	-52
244	0x02	2
245	0xa3	-93
246	0x6e	110
247	0x31	49
248	0x33	51
249	0x8f	-113
250	0x29	41
251	0x55	85
252	0x40	64
253	0x25	37
254	0x7e	126
255	0x32	50

tfl.pseudo_qconst1 i1 [32, 64]
0	0x01	1
1	0xfb	-5
2	0x07	7
3	0x06	6
4	0xe7	-25
5	0xd3	-45
6	0x81	-127
7	0xcf	-49
8	0xaa	-86
9	0xea	-22
10	0xe4	-28
11	0x23	35
12	0x2b	43
13	0xf0	-16
14	0xe4	-28
15	0xf4	-12
16	0x1f	31
17	0xd1	-47
18	0xf9	-7
19	0x2b	43
20	0xe5	-27
21	0x09	9
22	0x81	-127
23	0xfe	-2
24	0xac	-84
25	0xf6	-10
26	0x0f	15
27	0x24	36
28	0x37	55
29	0xef	-17
30	0x20	32
31	0x0e	14
32	0x06	6
33	0xce	-50
34	0xfc	-4
35	0xfd	-3
36	0xde	-34
37	0x0a	10
38	0xaf	-81
39	0xea	-22
40	0xb9	-71
41	0xe7	-25
42	0xec	-20
43	0x3b	59
44	0x46	70
45	0xfb	-5
46	0xdc	-36
47	0x27	39
48	0xd6	-42
49	0xf7	-9
50	0xd4	-44
51	0x28	40
52	0xe5	-27
53	0xfc	-4
54	0x8c	-116
55	0xf1	-15
56	0xc8	-56
57	0x01	1
58	0xde	-34
59	0x12	18
60	0x3c	60
61	0x24	36
62	0xf8	-8
63	0xf2	-14
64	0x39	57
65	0x2a	42
66	0xef	-17
67	0x81	-127
68	0x48	72
69	0x48	72
70	0x0b	11
71	0x1d	29
72	0x13	19
73	0xe6	-26
74	0x64	100
75	0xbd	-67
76	0xf4	-12
77	0x01	1
78	0xc7	-57
79	0x1e	30
80	0x22	34
81	0x23	35
82	0x09	9
83	0xab	-85
84	0x02	2
85	0xe3	-29
86	0x0e	14
87	0x31	49
88	0xc0	-64
89	0x0d	13
90	0x3f	63
91	0xff	-1
92	0xfa	-6
93	0xc1	-63
94	0xe4	-28
95	0x94	-108
96	0xeb	-21
97	0xee	-18
98	0x0b	11
99	0xd3	-45
100	0x2c	44
101	0xeb	-21
102	0x10	16
103	0x41	65
104	0xe9	-23
105	0x06	6
106	0x4b	75
107	0xbf	-65
108	0x0d	13
109	0x15	21
110	0x15	21
111	0xb1	-79
112	0xe6	-26
113	0xfc	-4
114	0xf1	-15
115	0x96	-106
116	0x24	36
117	0x06	6
118	0xfb	-5
119	0x0d	13
120	0x52	82
121	0xd1	-47
122	0x16	22
123	0xd0	-48
124	0xf6	-10
125	0xb5	-75
126	0x16	22
127	0x10	16
128	0xf0	-16
129	0x0b	11
130	0x33	51
131	0x2f	47
132	0xe4	-28
133	0xcd	-51
134	0xce	-50
135	0x01	1
136	0x23	35
137	0x26	38
138	0x0c	12
139	0xcf	-49
140	0x16	22
141	0x32	50
142	0xd2	-46
143	0x2c	44
144	0x27	39
145	0x31	49
146	0xe7	-25
147	0xf0	-16
148	0x1c	28
149	0xe7	-25
150	0x19	25
151	0xf1	-15
152	0x9f	-97
153	0x1e	30
154	0x10	16
155	0xdf	-33
156	0x17	23
157	0xb7	-73
158	0xda	-38
159	0x51	81
160	0xc7	-57
161	0x27	39
162	0x3d	61
163	0xc3	-61
164	0xd2	-46
165	0x22	34
166	0x1a	26
167	0xce	-50
168	0xb5	-75
169	0xf3	-13
170	0xd8	-40
171	0xde	-34
172	0x14	20
173	0xab	-85
174	0x10	16
175	0xd8	-40
176	0x28	40
177	0xd6	-42
178	0x00	0
179	0x27	39
180	0xdf	-33
181	0xec	-20
182	0xba	-70
183	0x0a	10
184	0x0c	12
185	0x9d	-99
186	0x3f	63
187	0x81	-127
188	0xdf	-33
189	0x0f	15
190	0xdf	-33
191	0x7c	124
192	0x43	67
193	0xd3	-45
194	0x3c	60
195	0x81	-127
196	0xcf	-49
197	0x20	32
198	0x1e	30
199	0x42	66
200	0xc7	-57
201	0x4d	77
202	0x20	32
203	0xdb	-37
204	0xea	-22
205	0xa8	-88
206	0xb6	-74
207	0x2a	42
208	0x22	34
209	0x3a	58
210	0x1a	26
211	0xaf	-81
212	0xb7	-73
213	0x4c	76
214	0xf1	-15
215	0x05	5
216	0x87	-121
217	0xe4	-28
218	0x1d	29
219	0xef	-17
220	0x14	20
221	0xcb	-53
222	0xb9	-71
223	0xd5	-43
224	0xf6	-10
225	0xfd	-3
226	0x02	2
227	0x06	6
228	0x43	67
229	0x0b	11
230	0xce	-50
231	0x08	8
232	0xdf	-33
233	0xcb	-53
234	0xe4	-28
235	0x15	21
236	0xf6	-10
237	0x1f	31
238	0xe3	-29
239	0xea	-22
240	0x39	57
241	0xcf	-49
242	0x16	22
243	0xd0	-48
244	0xe3	-29
245	0x79	121
246	0x36	54
247	0x65	101
248	0xa2	-94
249	0x3e	62
250	0x1d	29
251	0x3a	58
252	0xf9	-7
253	0xaf	-81
254	0xea	-22
255	0x07	7

tfl.pseudo_qconst2 i1 [32, 64]
0	0xfe	-2
1	0x31	49
2	0x05	5
3	0xb4	-76
4	0x0d	13
5	0xf7	-9
6	0x16	22
7	0xce	-50
8	0x42	66
9	0xd7	-41
10	0x25	37
11	0x28	40
12	0xeb	-21
13	0xc3	-61
14	0xf1	-15
15	0xee	-18
16	0xf2	-14
17	0x48	72
18	0xfa	-6
19	0x89	-119
20	0xf3	-13
21	0x07	7
22	0x13	19
23	0xd7	-41
24	0x47	71
25	0x07	7
26	0x17	23
27	0xb9	-71
28	0xa0	-96
29	0x81	-127
30	0xef	-17
31	0x35	53
32	0x05	5
33	0x52	82
34	0xf8	-8
35	0xbf	-65
36	0x0e	14
37	0xee	-18
38	0x09	9
39	0xbe	-66
40	0xac	-84
41	0xff	-1
42	0x16	22
43	0xc7	-57
44	0xd4	-44
45	0xc2	-62
46	0x0a	10
47	0xf6	-10
48	0x0d	13
49	0x63	99
50	0xfc	-4
51	0xb9	-71
52	0xe5	-27
53	0xfc	-4
54	0x8f	-113
55	0xd7	-41
56	0xe9	-23
57	0x0e	14
58	0x0c	12
59	0xc9	-55
60	0xcf	-49
61	0xd7	-41
62	0x04	4
63	0x18	24
64	0xf7	-9
65	0x18	24
66	0x05	5
67	0x1c	28
68	0x01	1
69	0x13	19
70	0xfa	-6
71	0x36	54
72	0xd2	-46
73	0x25	37
74	0xdc	-36
75	0xf8	-8
76	0x1a	26
77	0x26	38
78	0x0a	10
79	0xe9	-23
80	0xf5	-11
81	0xf3	-13
82	0xfa	-6
83	0x35	53
84	0xf2	-14
85	0x08	8
86	0x2d	45
87	0x3a	58
88	0x17	23
89	0x0a	10
90	0xe9	-23
91	0x36	54
92	0x15	21
93	0x2a	42
94	0x10	16
95	0xfd	-3
96	0x00	0
97	0xdd	-35
98	0xe8	-24
99	0x26	38
100	0xfe	-2
101	0x04	4
102	0x29	41
103	0x32	50
104	0x54	84
105	0xf5	-11
106	0xd8	-40
107	0x08	8
108	0xe5	-27
109	0x18	24
110	0x0e	14
111	0x33	51
112	0xf7	-9
113	0xef	-17
114	0x0a	10
115	0x18	24
116	0xf9	-7
117	0x0a	10
118	0x7f	127
119	0x3b	59
120	0x4b	75
121	0x02	2
122	0xfa	-6
123	0x3a	58
124	0x2f	47
125	0x3a	58
126	0xee	-18
127	0x04	4
128	0xfa	-6
129	0xed	-19
130	0x0e	14
131	0xc6	-58
132	0x19	25
133	0xf3	-13
134	0x1c	28
135	0xca	-54
136	0x3a	58
137	0xe0	-32
138	0x25	37
139	0x0a	10
140	0xee	-18
141	0xc6	-58
142	0xfa	-6
143	0xff	-1
144	0x11	17
145	0x1d	29
146	0x00	0
147	0x9e	-98
148	0xf4	-12
149	0xfb	-5
150	0xf3	-13
151	0xb5	-75
152	0x04	4
153	0x00	0
154	0x16	22
155	0xb5	-75
156	0xc3	-61
157	0xa5	-91
158	0xf8	-8
159	0x03	3
160	0x02	2
161	0x35	53
162	0xfe	-2
163	0xda	-38
164	0x12	18
165	0xfb	-5
166	0xdf	-33
167	0xb9	-71
168	0xc4	-60
169	0x0d	13
170	0x0a	10
171	0xdf	-33
172	0x10	16
173	0xcf	-49
174	0xf5	-11
175	0xe2	-30
176	0xfc	-4
177	0x46	70
178	0x00	0
179	0xc1	-63
180	0xe6	-26
181	0xfd	-3
182	0x81	-127
183	0xb4	-76
184	0xcd	-51
185	0x0a	10
186	0x09	9
187	0xbf	-65
188	0xc4	-60
189	0xac	-84
190	0x15	21
191	0x1d	29
192	0x12	18
193	0xfa	-6
194	0xed	-19
195	0x48	72
196	0xec	-20
197	0x10	16
198	0xd1	-47
199	0x38	56
200	0xdd	-35
201	0x30	48
202	0xdc	-36
203	0xcf	-49
204	0x3f	63
205	0x58	88
206	0xee	-18
207	0x01	1
208	0x01	1
209	0xc2	-62
210	0xff	-1
211	0x7a	122
212	0x07	7
213	0xfe	-2
214	0xd0	-48
215	0x6d	109
216	0xea	-22
217	0xee	-18
218	0xe0	-32
219	0x3e	62
220	0x53	83
221	0x76	118
222	0xec	-20
223	0xcc	-52
224	0x14	20
225	0x94	-108
226	0xf2	-14
227	0x65	101
228	0xf1	-15
229	0x05	5
230	0x2c	44
231	0x48	72
232	0x55	85
233	0xf0	-16
234	0xf7	-9
235	0x4e	78
236	0x09	9
237	0x73	115
238	0x08	8
239	0x05	5
240	0xf2	-14
241	0x89	-119
242	0x12	18
243	0x5b	91
244	0x1a	26
245	0x1b	27
246	0x7f	127
247	0x64	100
248	0x18	24
249	0x08	8
250	0xf5	-11
251	0x48	72
252	0x39	57
253	0x70	112
254	0xf1	-15
255	0xd2	-46

tfl.pseudo_qconst3 i1 [32, 64]
0	0xff	-1
1	0x3a	58
2	0x11	17
3	0xde	-34
4	0xf5	-11
5	0x0d	13
6	0x35	53
7	0x31	49
8	0x67	103
9	0xf5	-11
10	0x16	22
11	0x4a	74
12	0x34	52
13	0x1a	26
14	0x0f	15
15	0x27	39
16	0xec	-20
17	0x1a	26
18	0x0a	10
19	0x1a	26
20	0xf7	-9
21	0xee	-18
22	0x4d	77
23	0x55	85
24	0x27	39
25	0xfc	-4
26	0x1d	29
27	0x54	84
28	0x3a	58
29	0xef	-17
30	0x01	1
31	0x00	0
32	0xfe	-2
33	0x3c	60
34	0x05	5
35	0x04	4
36	0xe8	-24
37	0x04	4
38	0x7f	127
39	0x54	84
40	0x36	54
41	0x03	3
42	0x28	40
43	0x34	52
44	0xf2	-14
45	0xdd	-35
46	0x00	0
47	0x06	6
48	0xef	-17
49	0x5e	94
50	0x03	3
51	0xe5	-27
52	0xf8	-8
53	0x10	16
54	0x53	83
55	0x62	98
56	0x72	114
57	0xff	-1
58	0x2c	44
59	0xc0	-64
60	0xba	-70
61	0xc3	-61
62	0x04	4
63	0x5c	92
64	0xfb	-5
65	0xf4	-12
66	0x0d	13
67	0x0f	15
68	0xfe	-2
69	0x00	0
70	0xea	-22
71	0xd1	-47
72	0x86	-122
73	0xf0	-16
74	0xf1	-15
75	0xa6	-90
76	0x11	17
77	0x30	48
78	0x0c	12
79	0xf2	-14
80	0xf9	-7
81	0x1f	31
82	0xfd	-3
83	0xd8	-40
84	0xfe	-2
85	0xeb	-21
86	0xf2	-14
87	0xca	-54
88	0xd4	-44
89	0xf8	-8
90	0xef	-17
91	0xb2	-78
92	0xcd	-51
93	0x2f	47
94	0x17	23
95	0x2a	42
96	0xec	-20
97	0x01	1
98	0xed	-19
99	0xe4	-28
100	0x00	0
101	0x02	2
102	0xdf	-33
103	0xbb	-69
104	0xd3	-45
105	0xf8	-8
106	0xc3	-61
107	0x9f	-97
108	0x03	3
109	0x09	9
110	0xf3	-13
111	0x12	18
112	0x00	0
113	0x0d	13
114	0x01	1
115	0xea	-22
116	0xe8	-24
117	0xe5	-27
118	0xe5	-27
119	0x95	-107
120	0x81	-127
121	0xe2	-30
122	0xfe	-2
123	0x02	2
124	0x3d	61
125	0x48	72
126	0x06	6
127	0xe7	-25
128	0x05	5
129	0x1d	29
130	0xfb	-5
131	0xfb	-5
132	0x0d	13
133	0x0f	15
134	0x13	19
135	0x22	34
136	0x7f	127
137	0xef	-17
138	0x1b	27
139	0x66	102
140	0xff	-1
141	0xea	-22
142	0xf0	-16
143	0x08	8
144	0xfc	-4
145	0x15	21
146	0x0e	14
147	0x28	40
148	0x04	4
149	0xf0	-16
150	0x35	53
151	0x56	86
152	0x40	64
153	0xfb	-5
154	0x16	22
155	0x67	103
156	0x18	24
157	0xdb	-37
158	0xf5	-11
159	0xf1	-15
160	0x11	17
161	0x26	38
162	0xf8	-8
163	0x26	38
164	0xf5	-11
165	0x15	21
166	0x2e	46
167	0x41	65
168	0x26	38
169	0xf2	-14
170	0x2f	47
171	0x54	84
172	0xf1	-15
173	0xe7	-25
174	0xf0	-16
175	0x04	4
176	0x13	19
177	0x0d	13
178	0x1a	26
179	0x00	0
180	0x0f	15
181	0x11	17
182	0x37	55
183	0x4e	78
184	0x65	101
185	0x1b	27
186	0x20	32
187	0xf3	-13
188	0xb2	-78
189	0xc0	-64
190	0xfa	-6
191	0x16	22
192	0xf2	-14
193	0xb0	-80
194	0xfc	-4
195	0x06	6
196	0x08	8
197	0xfa	-6
198	0xd7	-41
199	0xe7	-25
200	0x81	-127
201	0xfb	-5
202	0xf2	-14
203	0xa3	-93
204	0x01	1
205	0x15	21
206	0xf6	-10
207	0xdf	-33
208	0xfa	-6
209	0xc9	-55
210	0xfa	-6
211	0x00	0
212	0xf4	-12
213	0xf0	-16
214	0xb5	-75
215	0xc6	-58
216	0xcc	-52
217	0x08	8
218	0xe9	-23
219	0xa7	-89
220	0xe2	-30
221	0x19	25
222	0x06	6
223	0xfc	-4
224	0x07	7
225	0xd7	-41
226	0xf9	-7
227	0xf2	-14
228	0x01	1
229	0x01	1
230	0xb8	-72
231	0xb4	-76
232	0xdb	-37
233	0xf0	-16
234	0xd0	-48
235	0xc2	-62
236	0x0d	13
237	0x0f	15
238	0xf9	-7
239	0xf3	-13
240	0x09	9
241	0xbe	-66
242	0xec	-20
243	0xed	-19
244	0xf0	-16
245	0xef	-17
246	0xba	-70
247	0xa4	-92
248	0x98	-104
249	0xfb	-5
250	0xea	-22
251	0x16	22
252	0x2d	45
253	0x28	40
254	0xfd	-3
255	0xd1	-47

tfl.pseudo_qconst4 i1 [16, 3, 3, 96]
0	0xe6	-26
1	0xf8	-8
2	0xd3	-45
3	0x0e	14
4	0x16	22
5	0x95	-107
6	0x2d	45
7	0xeb	-21
8	0x9c	-100
9	0xdd	-35
10	0xf9	-7
11	0xda	-38
12	0x12	18
13	0x23	35
14	0x1c	28
15	0xb3	-77
16	0xa2	-94
17	0x4a	74
18	0xb0	-80
19	0x07	7
20	0xb3	-77
21	0xf7	-9
22	0x30	48
23	0x46	70
24	0x06	6
25	0xc2	-62
26	0x47	71
27	0x1d	29
28	0x08	8
29	0x16	22
30	0xe1	-31
31	0xbe	-66
32	0xe0	-32
33	0x2d	45
34	0x36	54
35	0xdb	-37
36	0xe3	-29
37	0x0c	12
38	0x12	18
39	0xe7	-25
40	0xaf	-81
41	0x17	23
42	0x39	57
43	0x0c	12
44	0xf2	-14
45	0x9d	-99
46	0x06	6
47	0x36	54
48	0xd7	-41
49	0xa5	-91
50	0xa8	-88
51	0xbc	-68
52	0xe9	-23
53	0xa6	-90
54	0x9c	-100
55	0x22	34
56	0x25	37
57	0x93	-109
58	0xdf	-33
59	0xbe	-66
60	0x08	8
61	0x1f	31
62	0x02	2
63	0xd3	-45
64	0xa1	-95
65	0xb0	-80
66	0xe9	-23
67	0x3f	63
68	0xe5	-27
69	0xc2	-62
70	0xc5	-59
71	0x3e	62
72	0xaf	-81
73	0xb8	-72
74	0xef	-17
75	0xd7	-41
76	0x1f	31
77	0x30	48
78	0xd6	-42
79	0xf4	-12
80	0x03	3
81	0xc2	-62
82	0x0f	15
83	0xe5	-27
84	0x32	50
85	0x3f	63
86	0xfa	-6
87	0xca	-54
88	0xe3	-29
89	0xd4	-44
90	0x36	54
91	0x06	6
92	0x2b	43
93	0xf9	-7
94	0xc0	-64
95	0xb3	-77
96	0xfc	-4
97	0x2d	45
98	0x12	18
99	0x0f	15
100	0x0b	11
101	0x01	1
102	0x95	-107
103	0xc2	-62
104	0xe8	-24
105	0xb8	-72
106	0xe2	-30
107	0x2b	43
108	0xd1	-47
109	0xa6	-90
110	0x14	20
111	0x4c	76
112	0xe5	-27
113	0x2c	44
114	0x17	23
115	0x09	9
116	0xf7	-9
117	0xd1	-47
118	0xe1	-31
119	0xbf	-65
120	0xd1	-47
121	0x9f	-97
122	0xc8	-56
123	0x19	25
124	0x2b	43
125	0x2c	44
126	0xb0	-80
127	0xb0	-80
128	0xcd	-51
129	0xf6	-10
130	0xa5	-91
131	0xc5	-59
132	0xdb	-37
133	0xd9	-39
134	0xf0	-16
135	0x2c	44
136	0x23	35
137	0x2c	44
138	0xc7	-57
139	0xb7	-73
140	0xbf	-65
141	0xce	-50
142	0xe4	-28
143	0x9f	-97
144	0x00	0
145	0xf4	-12
146	0x99	-103
147	0xbe	-66
148	0x00	0
149	0xe3	-29
150	0x45	69
151	0xc3	-61
152	0xad	-83
153	0xb3	-77
154	0x42	66
155	0x19	25
156	0x90	-112
157	0x8c	-116
158	0xe5	-27
159	0xe7	-25
160	0xc7	-57
161	0xb8	-72
162	0x27	39
163	0x36	54
164	0xfc	-4
165	0xbb	-69
166	0xba	-70
167	0x03	3
168	0xe5	-27
169	0x06	6
170	0xae	-82
171	0xa9	-87
172	0xb8	-72
173	0x1d	29
174	0x0b	11
175	0xe5	-27
176	0x1e	30
177	0x55	85
178	0xc6	-58
179	0xa5	-91
180	0xdb	-37
181	0xc7	-57
182	0x3d	61
183	0xbc	-68
184	0xf3	-13
185	0x03	3
186	0xd4	-44
187	0xef	-17
188	0x39	57
189	0x01	1
190	0xe8	-24
191	0xe9	-23
192	0x1d	29
193	0xf3	-13
194	0x49	73
195	0x23	35
196	0xdb	-37
197	0x0f	15
198	0xb2	-78
199	0x0f	15
200	0x28	40
201	0x0d	13
202	0x0d	13
203	0xe6	-26
204	0xb7	-73
205	0xbb	-69
206	0x0b	11
207	0x10	16
208	0x34	52
209	0xb2	-78
210	0x33	51
211	0xd0	-48
212	0xef	-17
213	0xdf	-33
214	0xc3	-61
215	0xf2	-14
216	0xa6	-90
217	0x2c	44
218	0xe7	-25
219	0xa2	-94
220	0xf8	-8
221	0xc2	-62
222	0x1e	30
223	0x06	6
224	0xb4	-76
225	0x0b	11
226	0x3a	58
227	0x1f	31
228	0xf4	-12
229	0xcc	-52
230	0x50	80
231	0x5c	92
232	0xb4	-76
233	0xc8	-56
234	0x05	5
235	0xe4	-28
236	0xad	-83
237	0x0e	14
238	0xc1	-63
239	0xaf	-81
240	0x03	3
241	0xb1	-79
242	0xab	-85
243	0xec	-20
244	0x1c	28
245	0xda	-38
246	0x10	16
247	0x12	18
248	0xeb	-21
249	0xca	-54
250	0x39	57
251	0x3b	59
252	0x1b	27
253	0x3b	59
254	0x26	38
255	0xb2	-78

tfl.pseudo_qconst5 i1 [12, 224]
0	0xf7	-9
1	0xb6	-74
2	0x09	9
3	0x25	37
4	0xae	-82
5	0x0e	14
6	0x20	32
7	0xd8	-40
8	0x1e	30
9	0x03	3
10	0xe3	-29
11	0xce	-50
12	0x0a	10
13	0x15	21
14	0x1d	29
15	0xb3	-77
16	0xd2	-46
17	0xea	-22
18	0x18	24
19	0x1a	26
20	0xc8	-56
21	0x31	49
22	0xf5	-11
23	0xc0	-64
24	0xa2	-94
25	0x10	16
26	0xdd	-35
27	0xd8	-40
28	0xce	-50
29	0x37	55
30	0x06	6
31	0xf2	-14
32	0x08	8
33	0x08	8
34	0x2a	42
35	0xf4	-12
36	0x31	49
37	0x34	52
38	0xbf	-65
39	0x54	84
40	0x12	18
41	0xb3	-77
42	0x26	38
43	0xf1	-15
44	0x24	36
45	0x21	33
46	0xdc	-36
47	0xf9	-7
48	0xe2	-30
49	0x43	67
50	0xd9	-39
51	0xd4	-44
52	0x2a	42
53	0xb0	-80
54	0xe2	-30
55	0x23	35
56	0xf2	-14
57	0x45	69
58	0x4c	76
59	0x00	0
60	0xfa	-6
61	0xf2	-14
62	0x25	37
63	0xec	-20
64	0xee	-18
65	0xd0	-48
66	0x13	19
67	0x1c	28
68	0xbe	-66
69	0x18	24
70	0x11	17
71	0xca	-54
72	0xe1	-31
73	0xdc	-36
74	0xc5	-59
75	0xd8	-40
76	0x02	2
77	0xe2	-30
78	0xea	-22
79	0x2b	43
80	0x11	17
81	0xff	-1
82	0xde	-34
83	0xb3	-77
84	0xeb	-21
85	0xc9	-55
86	0x10	16
87	0xd2	-46
88	0xf9	-7
89	0x12	18
90	0x21	33
91	0xf0	-16
92	0x12	18
93	0x07	7
94	0xdb	-37
95	0x05	5
96	0x0a	10
97	0x17	23
98	0xf4	-12
99	0xc2	-62
100	0x0e	14
101	0xf6	-10
102	0x06	6
103	0xe7	-25
104	0x81	-127
105	0xfc	-4
106	0x3a	58
107	0xaf	-81
108	0x1e	30
109	0x36	54
110	0xdb	-37
111	0xf0	-16
112	0xff	-1
113	0x1c	28
114	0xeb	-21
115	0x23	35
116	0x05	5
117	0xf9	-7
118	0xcd	-51
119	0xa2	-94
120	0xb5	-75
121	0x97	-105
122	0xa8	-88
123	0x24	36
124	0xad	-83
125	0xff	-1
126	0x3f	63
127	0xca	-54
128	0x22	34
129	0xc2	-62
130	0xe7	-25
131	0xfd	-3
132	0x00	0
133	0x22	34
134	0xe2	-30
135	0x23	35
136	0x06	6
137	0xdb	-37
138	0x27	39
139	0xd2	-46
140	0x13	19
141	0xf2	-14
142	0xe8	-24
143	0xe5	-27
144	0xf1	-15
145	0x19	25
146	0xfe	-2
147	0xe3	-29
148	0x2c	44
149	0xc4	-60
150	0xe4	-28
151	0x3e	62
152	0xbe	-66
153	0xe3	-29
154	0x11	17
155	0xec	-20
156	0xef	-17
157	0x19	25
158	0xed	-19
159	0x10	16
160	0x3a	58
161	0xe8	-24
162	0xb6	-74
163	0x0a	10
164	0xb9	-71
165	0x00	0
166	0xd2	-46
167	0x20	32
168	0xf0	-16
169	0xea	-22
170	0x41	65
171	0xf8	-8
172	0xe8	-24
173	0xcf	-49
174	0xd6	-42
175	0xb8	-72
176	0xcd	-51
177	0x1d	29
178	0x3f	63
179	0xb4	-76
180	0x06	6
181	0x2c	44
182	0x00	0
183	0x15	21
184	0x00	0
185	0x0e	14
186	0xe4	-28
187	0xc9	-55
188	0x26	38
189	0x2c	44
190	0xc2	-62
191	0x0a	10
192	0x29	41
193	0x40	64
194	0xe7	-25
195	0x2a	42
196	0xbe	-66
197	0xe6	-26
198	0xe9	-23
199	0x1f	31
200	0xbc	-68
201	0x09	9
202	0x44	68
203	0xd5	-43
204	0xf6	-10
205	0xc0	-64
206	0xe8	-24
207	0xee	-18
208	0xec	-20
209	0x17	23
210	0xea	-22
211	0xec	-20
212	0xdc	-36
213	0xed	-19
214	0x24	36
215	0xbd	-67
216	0x01	1
217	0xaf	-81
218	0x30	48
219	0xd5	-43
220	0x14	20
221	0xea	-22
222	0x17	23
223	0xcf	-49
224	0x07	7
225	0x12	18
226	0x09	9
227	0x92	-110
228	0xce	-50
229	0xfd	-3
230	0x1a	26
231	0x2c	44
232	0xdc	-36
233	0x47	71
234	0x02	2
235	0x1f	31
236	0xb4	-76
237	0xc4	-60
238	0xe1	-31
239	0xe9	-23
240	0x21	33
241	0x00	0
242	0x34	52
243	0xec	-20
244	0xc3	-61
245	0x22	34
246	0xfe	-2
247	0x1c	28
248	0xbf	-65
249	0x3c	60
250	0x0a	10
251	0xef	-17
252	0xfc	-4
253	0xf2	-14
254	0x10	16
255	0x10	16

tfl.pseudo_qconst6 i1 [224, 1344]
0	0xea	-22
1	0xd3	-45
2	0xd9	-39
3	0xe6	-26
4	0xec	-20
5	0xcc	-52
6	0x14	20
7	0x3f	63
8	0xce	-50
9	0xd7	-41
10	0xe9	-23
11	0x2b	43
12	0x09	9
13	0x29	41
14	0xd9	-39
15	0x01	1
16	0xea	-22
17	0x8b	-117
18	0xeb	-21
19	0x09	9
20	0xf2	-14
21	0xee	-18
22	0x29	41
23	0x29	41
24	0xea	-22
25	0xef	-17
26	0xec	-20
27	0xe2	-30
28	0xff	-1
29	0xec	-20
30	0xdc	-36
31	0x29	41
32	0xe0	-32
33	0xdc	-36
34	0xe4	-28
35	0x09	9
36	0xd5	-43
37	0xe7	-25
38	0x52	82
39	0x3a	58
40	0xcd	-51
41	0xe9	-23
42	0x01	1
43	0x00	0
44	0x1a	26
45	0x06	6
46	0xe3	-29
47	0xcd	-51
48	0xeb	-21
49	0xc3	-61
50	0xfa	-6
51	0xe6	-26
52	0xc2	-62
53	0xf2	-14
54	0x1b	27
55	0xec	-20
56	0xb8	-72
57	0xf9	-7
58	0xc1	-63
59	0xdb	-37
60	0x09	9
61	0x24	36
62	0xd7	-41
63	0xf2	-14
64	0x29	41
65	0xff	-1
66	0x1e	30
67	0xeb	-21
68	0x09	9
69	0xf6	-10
70	0xfa	-6
71	0xf0	-16
72	0xd2	-46
73	0x0d	13
74	0x23	35
75	0xe3	-29
76	0xfd	-3
77	0x2d	45
78	0x2a	42
79	0x3a	58
80	0x13	19
81	0x22	34
82	0x26	38
83	0xf9	-7
84	0x0e	14
85	0x25	37
86	0xfe	-2
87	0xd3	-45
88	0x86	-122
89	0x2d	45
90	0x1b	27
91	0xe0	-32
92	0x12	18
93	0xe9	-23
94	0x1e	30
95	0xf1	-15
96	0x25	37
97	0xe6	-26
98	0x1e	30
99	0x14	20
100	0x12	18
101	0x2f	47
102	0x2f	47
103	0xf0	-16
104	0xf6	-10
105	0x1d	29
106	0x33	51
107	0xbf	-65
108	0xd4	-44
109	0xfb	-5
110	0x0d	13
111	0xf2	-14
112	0x29	41
113	0xcf	-49
114	0x36	54
115	0x14	20
116	0x1b	27
117	0x2a	42
118	0xfd	-3
119	0x22	34
120	0x3d	61
121	0x24	36
122	0xfc	-4
123	0xe1	-31
124	0x02	2
125	0xfe	-2
126	0x25	37
127	0x47	71
128	0xfb	-5
129	0xef	-17
130	0x22	34
131	0xd0	-48
132	0x03	3
133	0x07	7
134	0xd6	-42
135	0x08	8
136	0xc5	-59
137	0x07	7
138	0x15	21
139	0xfd	-3
140	0x24	36
141	0x32	50
142	0xfa	-6
143	0xea	-22
144	0x08	8
145	0xc2	-62
146	0x21	33
147	0x04	4
148	0xfe	-2
149	0x10	16
150	0xb1	-79
151	0xe9	-23
152	0x12	18
153	0xf7	-9
154	0x1e	30
155	0x2f	47
156	0xd4	-44
157	0x09	9
158	0x15	21
159	0xeb	-21
160	0x20	32
161	0xe6	-26
162	0xfa	-6
163	0x3c	60
164	0x0e	14
165	0x08	8
166	0x09	9
167	0x3a	58
168	0x06	6
169	0x14	20
170	0x10	16
171	0xf3	-13
172	0xfe	-2
173	0xf1	-15
174	0x0c	12
175	0x25	37
176	0x25	37
177	0xfe	-2
178	0x20	32
179	0x39	57
180	0x22	34
181	0x16	22
182	0xe7	-25
183	0x0e	14
184	0xe2	-30
185	0x17	23
186	0xe6	-26
187	0xf7	-9
188	0x2e	46
189	0x04	4
190	0xf6	-10
191	0xc3	-61
192	0x26	38
193	0x2d	45
194	0x1f	31
195	0xfb	-5
196	0x1b	27
197	0xeb	-21
198	0x22	34
199	0xd6	-42
200	0xe9	-23
201	0x14	20
202	0x27	39
203	0x09	9
204	0xec	-20
205	0x0b	11
206	0x07	7
207	0x07	7
208	0x1f	31
209	0xe2	-30
210	0x31	49
211	0x18	24
212	0x19	25
213	0x18	24
214	0x06	6
215	0xad	-83
216	0x0d	13
217	0x11	17
218	0x29	41
219	0xc1	-63
220	0xef	-17
221	0x00	0
222	0x0f	15
223	0x27	39
224	0x32	50
225	0x06	6
226	0x0e	14
227	0x05	5
228	0x15	21
229	0x29	41
230	0x05	5
231	0xea	-22
232	0xd8	-40
233	0x08	8
234	0x26	38
235	0xba	-70
236	0x2a	42
237	0x2f	47
238	0x13	19
239	0xeb	-21
240	0x0d	13
241	0x08	8
242	0x27	39
243	0x0e	14
244	0x27	39
245	0x2b	43
246	0xd5	-43
247	0xed	-19
248	0x16	22
249	0xfd	-3
250	0xf3	-13
251	0x49	73
252	0x4b	75
253	0xca	-54
254	0x12	18
255	0xe6	-26

functional_1_1/conv2d_2_1/convolution i1 [96, 3, 3, 3]
0	0x03	3
1	0x10	16
2	0xb2	-78
3	0x28	40
4	0xf6	-10
5	0x73	115
6	0xe1	-31
7	0xf4	-12
8	0x50	80
9	0x22	34
10	0xf4	-12
11	0x6d	109
12	0x2d	45
13	0x1f	31
14	0xf3	-13
15	0x07	7
16	0x32	50
17	0xb7	-73
18	0x23	35
19	0xe0	-32
20	0x81	-127
21	0x27	39
22	0xfa	-6
23	0x57	87
24	0xee	-18
25	0xf9	-7
26	0x1b	27
27	0xea	-22
28	0x0b	11
29	0x05	5
30	0x0b	11
31	0xdc	-36
32	0x43	67
33	0x03	3
34	0x35	53
35	0x6d	109
36	0xe4	-28
37	0x29	41
38	0x7f	127
39	0xe9	-23
40	0xf0	-16
41	0x35	53
42	0x06	6
43	0xfb	-5
44	0x7b	123
45	0xe3	-29
46	0x35	53
47	0x21	33
48	0xea	-22
49	0xe3	-29
50	0x07	7
51	0x19	25
52	0x34	52
53	0x74	116
54	0xd2	-46
55	0xe2	-30
56	0x28	40
57	0xe2	-30
58	0xe7	-25
59	0x49	73
60	0xbb	-69
61	0xcb	-53
62	0x2b	43
63	0xe2	-30
64	0xea	-22
65	0x53	83
66	0xf2	-14
67	0xcc	-52
68	0x81	-127
69	0x26	38
70	0x1e	30
71	0xc1	-63
72	0x04	4
73	0xd8	-40
74	0x1b	27
75	0x14	20
76	0xf7	-9
77	0xa9	-87
78	0x11	17
79	0xf9	-7
80	0xca	-54
81	0xe2	-30
82	0xa0	-96
83	0xc2	-62
84	0xfe	-2
85	0x23	35
86	0x3a	58
87	0xe1	-31
88	0x1e	30
89	0xc1	-63
90	0xb7	-73
91	0x17	23
92	0x19	25
93	0x81	-127
94	0xf4	-12
95	0xb3	-77
96	0xe6	-26
97	0x1c	28
98	0xef	-17
99	0xeb	-21
100	0xdd	-35
101	0x96	-106
102	0xf5	-11
103	0x4c	76
104	0xd6	-42
105	0x9c	-100
106	0x4f	79
107	0x3c	60
108	0xe3	-29
109	0xdb	-37
110	0x06	6
111	0xfb	-5
112	0x0a	10
113	0x81	-127
114	0xf9	-7
115	0xdc	-36
116	0xd5	-43
117	0xfe	-2
118	0xf3	-13
119	0x1c	28
120	0xf0	-16
121	0x30	48
122	0x94	-108
123	0x1b	27
124	0x11	17
125	0x00	0
126	0x0f	15
127	0x0c	12
128	0x09	9
129	0xf3	-13
130	0x2b	43
131	0x92	-110
132	0xe7	-25
133	0x19	25
134	0xe8	-24
135	0xfc	-4
136	0xe9	-23
137	0x0c	12
138	0x37	55
139	0x39	57
140	0x35	53
141	0x01	1
142	0xea	-22
143	0x8f	-113
144	0xf4	-12
145	0xd9	-39
146	0x24	36
147	0x52	82
148	0x41	65
149	0x3f	63
150	0x01	1
151	0xd8	-40
152	0xed	-19
153	0x27	39
154	0x0c	12
155	0x04	4
156	0x3a	58
157	0x37	55
158	0x42	66
159	0xfb	-5
160	0xf5	-11
161	0x81	-127
162	0x15	21
163	0xc1	-63
164	0xc2	-62
165	0x3a	58
166	0xfa	-6
167	0x2f	47
168	0xf8	-8
169	0x09	9
170	0x3b	59
171	0x45	69
172	0xe5	-27
173	0x81	-127
174	0x2f	47
175	0x65	101
176	0x29	41
177	0xd7	-41
178	0x62	98
179	0x02	2
180	0xf0	-16
181	0xdd	-35
182	0xd9	-39
183	0x24	36
184	0x5b	91
185	0x20	32
186	0xce	-50
187	0x23	35
188	0xf3	-13
189	0xd0	-48
190	0x1b	27
191	0x81	-127
192	0xf9	-7
193	0xe3	-29
194	0x83	-125
195	0xe3	-29
196	0xe7	-25
197	0x1a	26
198	0x13	19
199	0x1f	31
200	0x8a	-118
201	0xe6	-26
202	0xfd	-3
203	0xa7	-89
204	0x00	0
205	0xda	-38
206	0x2a	42
207	0x18	24
208	0x41	65
209	0xcb	-53
210	0x1d	29
211	0xdf	-33
212	0xa4	-92
213	0xff	-1
214	0xcf	-49
215	0x47	71
216	0xda	-38
217	0xd0	-48
218	0x0a	10
219	0x60	96
220	0x61	97
221	0xc4	-60
222	0x7f	127
223	0x0f	15
224	0xa1	-95
225	0x96	-106
226	0xc6	-58
227	0x0e	14
228	0x59	89
229	0x08	8
230	0x42	66
231	0x60	96
232	0x21	33
233	0x8e	-114
234	0xa4	-92
235	0xe7	-25
236	0x48	72
237	0x2f	47
238	0x45	69
239	0xfd	-3
240	0x50	80
241	0xc4	-60
242	0x92	-110
243	0x04	4
244	0xf9	-7
245	0xaa	-86
246	0x1e	30
247	0x11	17
248	0x41	65
249	0xfa	-6
250	0xfa	-6
251	0x73	115
252	0x10	16
253	0x00	0
254	0x8f	-113
255	0x3a	58
