models/gesture_model_3d_final.tflite (tflite, 369288 bytes, 18 tensors)

arith.constant f4 [96]
0	0xbba78e18	-0.0051133744
1	0xbd413f74	-0.047179654
2	0xbc43c06c	-0.011947732
3	0x3d8fee6a	0.07027896
4	0xbcad0261	-0.021119298
5	0xbd74a2f2	-0.05972571
6	0xbd1a8962	-0.037728675
7	0x378d9782	1.6879061e-05
8	0x3d2c0605	0.04199793
9	0x3d91c83f	0.07118272
10	0xbd02a1c3	-0.03189255
11	0xbd236699	-0.039892767
12	0xbd5c95b4	-0.053853706
13	0x3da04e37	0.07827418
14	0xbcee936c	-0.02912303
15	0xbca8075e	-0.020511325
16	0xbc09cf02	-0.008411171
17	0x3d74f3da	0.059802867
18	0xbc8f71a0	-0.017510235
19	0xbc13817a	-0.009003038
20	0x3c2c149f	0.010502963
21	0x3d295d4e	0.041348748
22	0x3d42679d	0.047462095
23	0x3d1481d9	0.036256645
24	0x3c676ac6	0.014124578
25	0xbd521f03	-0.051299106
26	0xbc96e79b	-0.018420985
27	0xbc024417	-0.007950804
28	0xbbe36527	-0.0069395485
29	0xbc1e476c	-0.009660583
30	0x3bae1479	0.005312499
31	0x3d595d7e	0.053067677
32	0xbcc01e47	-0.023451937
33	0x3c1a3848	0.009412833
34	0x3b44d2ff	0.003003299
35	0x3d14b01e	0.03630077
36	0xbc6c3a15	-0.014418145
37	0xbc847a74	-0.016171671
38	0xbc67c42e	-0.014145894
39	0x3cb90d34	0.022589304
40	0xbd8b6b89	-0.0680762
41	0x3deb99c0	0.11503935
42	0xbd9258ea	-0.07145865
43	0x3cd37f56	0.025817554
44	0xbbd95974	-0.006632978
45	0xbbb6252a	-0.0055586295
46	0xbcc21afd	-0.02369451
47	0xbcaf9d5c	-0.02143734
48	0xbcb3391a	-0.021877814
49	0xbd52049c	-0.051273927
50	0xbce0160e	-0.027354266
51	0xbcd5b2e9	-0.026086288
52	0xbbc4aa4f	-0.0060017477
53	0x3cd4c46b	0.025972566
54	0x3c5f54b7	0.013631037
55	0xbbadf280	-0.0053084493
56	0x3cdd34b2	0.027002666
57	0xbc5e106a	-0.013553718
58	0xbcb7ccf9	-0.022436606
59	0xbcc58932	-0.024113271
60	0x3d035ed1	0.032072846
61	0x3ab6495b	0.001390736
62	0xbbd71aa9	-0.0065644574
63	0xbd12b1ad	-0.035813976
64	0xbd2f1fdb	-0.04275499
65	0xbc3c56e0	-0.011495322
66	0xbcf446d1	-0.029818924
67	0xbbce2a3b	-0.0062916554
68	0xbd0f7821	-0.035026673
69	0x3d5618c1	0.0522697
70	0xbd952ce3	-0.07283952
71	0xbcae1c06	-0.021253597
72	0xbd68d23f	-0.05684113
73	0x3c32c5c0	0.010911405
74	0xbcfb8125	-0.03070123
75	0xbc1bb332	-0.009503173
76	0xbcc75550	-0.024332672
77	0x3a91df74	0.0011129216
78	0xbb399d9b	-0.00283227
79	0x3dc03f49	0.09387071
80	0xbbb19385	-0.005419197
81	0xbd16cbc3	-0.036815416
82	0xbd0fac67	-0.035076525
83	0xbd1447dc	-0.036201343
84	0x3b29b6f5	0.0025896404
85	0xbc95e5ba	-0.018298019
86	0xbcbf1ad8	-0.02332823
87	0xbd01091e	-0.031502835
88	0xbd1658f6	-0.036705934
89	0xbcb0e5f1	-0.02159402
90	0x3d0dea75	0.034647424
91	0xbc926218	-0.01786904
92	0xbbfc9fc4	-0.0077094752
93	0x3d0a4a07	0.033762004
94	0x00000000	0.0
95	0x3c31bc1a	0.01084807

arith.constant1 f4 [1, 1, 64]
0	0x3ecc46c7	0.3989775
1	0x3fab8108	1.3398752
2	0x3f886b80	1.0657806
3	0x3f99e3ec	1.2022681
4	0x3f616969	0.8805147
5	0x3f392862	0.72327244
6	0x3ed685c9	0.41898945
7	0x3f992530	1.1964474
8	0x3f9e0ee5	1.2348295
9	0x3ea606fe	0.3242721
10	0x3fcfc3dc	1.6231647
11	0x3ee88a3c	0.45417964
12	0x3e9d43ea	0.30715877
13	0x3fac87e5	1.3478972
14	0x3ebddca8	0.3708241
15	0x3edf2029	0.43579224
16	0x3ed293e3	0.41128454
17	0x3fa993de	1.324825
18	0x3f84bb6d	1.0369698
19	0x3fa0840b	1.2540296
20	0x3f760275	0.960975
21	0x3f4cc065	0.7998107
22	0x3eb2b08f	0.3490033
23	0x3f786422	0.9702779
24	0x3f86d297	1.0533017
25	0x3ed016ba	0.4064234
26	0x3f9c6e91	1.2221242
27	0x3ebd1e24	0.36937058
28	0x3eb99cac	0.36252344
29	0x3fbcbcaa	1.4745076
30	0x3ed0be82	0.40770346
31	0x3e911eea	0.28343898
32	0x3ebac0c2	0.36475188
33	0x3f8450b5	1.033713
34	0x3f8b905a	1.0903428
35	0x3fc05a86	1.5027626
36	0x3f686c4d	0.90790254
37	0x3f2fafa6	0.68627393
38	0x3eb8479e	0.3599214
39	0x3f8845b8	1.0646276
40	0x3f8e3eda	1.1112931
41	0x3ef199bf	0.4718761
42	0x3f8688fc	1.0510554
43	0x3ec35745	0.3815252
44	0x3ebce659	0.3689449
45	0x3fbcef22	1.4760478
46	0x3ec3d844	0.38250935
47	0x3ee5050f	0.44730422
48	0x3ebb2826	0.36554068
49	0x3fa1be6c	1.2636237
50	0x3f96f00b	1.1792005
51	0x3fb407dc	1.4064898
52	0x3f762d52	0.96162903
53	0x3f48fbd0	0.78509235
54	0x3ea608e1	0.3242865
55	0x3f83a5a5	1.0284926
56	0x3fa05665	1.2526366
57	0x3ee29ed0	0.4426179
58	0x3fa7b3ea	1.310178
59	0x3f0003f2	0.5000602
60	0x3ef0a221	0.46998695
61	0x3fdbefda	1.7182572
62	0x3ee748bc	0.4517268
63	0x3ebb6a11	0.3660436

arith.constant2 f4 [1, 1, 64]
0	0xbcbdf205	-0.023186693
1	0x3db4d2af	0.08829247
2	0x3da9918a	0.082797125
3	0xbe01d40f	-0.1267855
4	0xbc53ea96	-0.012934348
5	0x3d05ccd7	0.032666054
6	0xbbd2c536	-0.006432201
7	0x3cbe7c2c	0.02325257
8	0xbd61a3cd	-0.055087853
9	0x3cc3614e	0.02385011
10	0xbd20259a	-0.03909836
11	0xbc9902b9	-0.018678056
12	0x3ba0ad3f	0.004903465
13	0x3e07012b	0.1318404
14	0x3d80935b	0.06278106
15	0x3ddd10d9	0.10794229
16	0x3ce74652	0.028231774
17	0x3ce1384e	0.027492668
18	0x3d332036	0.04373189
19	0xbcea9c81	-0.02863908
20	0x3dc4a4ff	0.09601783
21	0xbc6f0067	-0.014587498
22	0x3d286dd3	0.04112036
23	0x3e21010a	0.15723053
24	0xbc908da6	-0.017645668
25	0x3da28a91	0.07936586
26	0x3e59df86	0.21276674
27	0x3d272356	0.040805183
28	0x3c9f14c3	0.01941908
29	0xbd76dbba	-0.06026814
30	0x3d7eae46	0.06217792
31	0x3d21998d	0.039453078
32	0x3bfb8d61	0.007676766
33	0xbda26d7c	-0.07931039
34	0x3d1243f4	0.035709336
35	0x3e17f3d3	0.14839105
36	0x3dfe0608	0.12403494
37	0x3d264faf	0.040603336
38	0x3d1b55c1	0.03792358
39	0x3df11c32	0.11772956
40	0x3dc1ffe1	0.09472633
41	0xbbe6fcbd	-0.0070491717
42	0x3dec19e7	0.11528378
43	0x3cd70ebd	0.026252145
44	0x3d126199	0.035737608
45	0xbc80043a	-0.015627015
46	0x3d3d42f2	0.046206422
47	0xbd0c2178	-0.034211606
48	0xbb9338c5	-0.0044928514
49	0xbd7610c0	-0.060074568
50	0x3d6f6209	0.058443103
51	0x3cf738dc	0.03017848
52	0x3deddcc2	0.11614372
53	0x3dbf0e65	0.093289174
54	0x3c2094dc	0.009801116
55	0x3e182c42	0.14860633
56	0x3d2f813a	0.04284785
57	0xbcf2e3c5	-0.029649625
58	0xbdde9327	-0.10867911
59	0x3dc9c0d2	0.09851231
60	0x3c62f426	0.013852155
61	0xbdaf4b10	-0.08559239
62	0x3cb66363	0.022264188
63	0x3d6b96fe	0.057517044

arith.constant13 f4 [224]
0	0xbd68a714	-0.056799963
1	0xbc2463d6	-0.010033568
2	0xbd5ce3da	-0.053928234
3	0xbc9d717d	-0.019219154
4	0xbd219876	-0.03945204
5	0xbd9ab2eb	-0.07553657
6	0xbc9bb316	-0.019006293
7	0xbd097f12	-0.03356845
8	0xbd435ff8	-0.047698945
9	0xbd6f5e08	-0.058439285
10	0xbd3ad30b	-0.045611423
11	0xbd851afc	-0.064992875
12	0xbb324fe8	-0.0027208272
13	0xbd2cc614	-0.04218109
14	0xbc436782	-0.011926534
15	0x3cd0d47b	0.025491944
16	0xbd80fa55	-0.06297747
17	0xbd0acd9c	-0.03388749
18	0xbd197a55	-0.03747018
19	0xbcfaed76	-0.030630808
20	0xbd4dc181	-0.050233368
21	0xbd25e18b	-0.040498298
22	0xbcb60393	-0.022218501
23	0xbcab945f	-0.020944772
24	0xbcfe833f	-0.031068442
25	0xbcbaf915	-0.02282385
26	0xbdb5fe2b	-0.08886369
27	0xbcd36c8b	-0.025808593
28	0xbd9fe0fc	-0.07806584
29	0xbcac7448	-0.021051541
30	0xbd1647dc	-0.036689624
31	0xbd8a9693	-0.06767001
32	0xbdb26aa0	-0.08711743
33	0xbc001d26	-0.0078194495
34	0xbd4666ef	-0.04843801
35	0xbc81ab2f	-0.015828697
36	0xbd768015	-0.060180742
37	0xbd72c592	-0.05927045
38	0xbbec33f5	-0.007208342
39	0xbc92ea24	-0.017933913
40	0xbd103eca	-0.03521613
41	0xbce4c163	-0.027924245
42	0xbd7a3ef5	-0.061095197
43	0xbcfac07e	-0.030609366
44	0xbd9eaccb	-0.077478014
45	0xbcda59a7	-0.026654078
46	0xbcc9039f	-0.02453786
47	0xbd46f8e0	-0.04857719
48	0xbd3ec343	-0.046572935
49	0xbce78dd8	-0.028265879
50	0xbdb648b3	-0.08900585
51	0xbd55386b	-0.052055757
52	0xbce27092	-0.027641568
53	0xbc435b78	-0.011923663
54	0xbd4cc967	-0.04999676
55	0xbda5c7a3	-0.08094718
56	0xbd6e222d	-0.05813806
57	0xbcaa2422	-0.020769183
58	0xbd044fb8	-0.03230259
59	0xbda4413c	-0.08020255
60	0xbd8e1012	-0.06936659
61	0xbd4a9faf	-0.049468692
62	0xbcb6f54a	-0.02233376
63	0xbd11d1ef	-0.0356006
64	0xbce58a88	-0.028020158
65	0xbc7a06dd	-0.015260425
66	0xbc4cf167	-0.012508727
67	0xbc89059d	-0.01672631
68	0xbd601fee	-0.05471795
69	0xbd2e08ad	-0.042488743
70	0xbc808dab	-0.015692553
71	0xbd9be882	-0.07612707
72	0xbd234d50	-0.039868653
73	0xbd0b58ae	-0.03402012
74	0xbd17da9f	-0.037073728
75	0xbd802ef1	-0.06258953
76	0xbd8b1f18	-0.0679304
77	0xbd646fdd	-0.055770744
78	0xbdb2180c	-0.08695993
79	0xbd5fce40	-0.054640055
80	0xbcc70f54	-0.024299301
81	0xbce27a7e	-0.0276463
82	0xbd38136b	-0.044940393
83	0xbd88ea26	-0.06685285
84	0xbd9aff9d	-0.075682856
85	0xbd048b39	-0.032359336
86	0xbd9b2f9b	-0.075774394
87	0xbc117f2d	-0.008880419
88	0x3cbf33a0	0.023340046
89	0xbc906bc1	-0.017629506
90	0xbc9b0c3e	-0.018926736
91	0xbd1ea544	-0.03873183
92	0xbcf955b3	-0.030436372
93	0xbc9b1f52	-0.018935833
94	0xbce1bb78	-0.027555212
95	0xbc3d046f	-0.011536702
96	0xbd629b37	-0.055323806
97	0xbcdee320	-0.027207911
98	0xbd342a72	-0.04398579
99	0xbd2c4e64	-0.042066947
100	0xbd02855b	-0.03186546
101	0xbd109f88	-0.03530839
102	0x3c8b182f	0.016979305
103	0xbd5f38a7	-0.054497387
104	0xbd3aec88	-0.04563573
105	0xbc55cee5	-0.013049816
106	0xbd1c5923	-0.038170945
107	0xbd9d8cd7	-0.07692879
108	0xbd3aacf6	-0.045575105
109	0xbd4a0ea1	-0.049330357
110	0xbd40d7d3	-0.047080826
111	0xbd5bbe98	-0.05364856
112	0xbd1b59f4	-0.037927583
113	0xbd077ded	-0.033079077
114	0xbd39d9d8	-0.045373768
115	0xbd6c9662	-0.057760604
116	0xbd35c60e	-0.044378333
117	0xbd443e2f	-0.047910865
118	0xbd309d1f	-0.043118592
119	0xbd759f32	-0.059966274
120	0xbc4cd195	-0.01250114
121	0xbd55f48d	-0.052235175
122	0xbd67cf73	-0.056594323
123	0xbd08cb05	-0.03339674
124	0xbd6a5752	-0.05721218
125	0xbd53ebf0	-0.05173868
126	0xbca6589f	-0.02030593
127	0xbb0084b4	-0.0019610347
128	0xbd6cb90a	-0.057793655
129	0xbd32f370	-0.04368919
130	0xbd0d5d52	-0.034512825
131	0xbd4c7dfa	-0.049924828
132	0xbc26a7ae	-0.010171814
133	0xbd9804b0	-0.07422769
134	0xbd55dc4b	-0.05221204
135	0xbd96c01f	-0.07360863
136	0xbd96e196	-0.07367246
137	0xbbe2544c	-0.0069070216
138	0xbd6f30cd	-0.05839615
139	0xbc3cf127	-0.011532105
140	0xbd164454	-0.036686257
141	0xbcb4b3d6	-0.022058409
142	0xbd059bfd	-0.032619465
143	0xbd501658	-0.05080256
144	0xbd6a4bbf	-0.057201143
145	0xbc2290e0	-0.009922236
146	0xbd03dcdc	-0.03219305
147	0xbb08832f	-0.0020830145
148	0xbd0d5a59	-0.03450999
149	0xbd7fcee5	-0.06245317
150	0xbd2b176d	-0.041770387
151	0xbd83ee25	-0.06441907
152	0xbdad1028	-0.08450347
153	0xbd81417f	-0.063113205
154	0xbd08a05b	-0.033356052
155	0xbd7f891f	-0.06238663
156	0xbaa353fe	-0.0012460945
157	0xbd64e2f7	-0.055880513
158	0xbd6f4822	-0.0584184
159	0xbd8812c6	-0.06644206
160	0xbd88da15	-0.06682221
161	0xbd6c56a4	-0.057699814
162	0xbd2c9e22	-0.042142995
163	0xbdb98d22	-0.09060122
164	0xbdc9e23f	-0.09857606
165	0xbcf03fab	-0.029327234
166	0xbd251e02	-0.04031182
167	0xbcfccf85	-0.030860672
168	0xbd296b8c	-0.04136233
169	0xbd491510	-0.049092352
170	0xbd2bf5c9	-0.041982446
171	0xbd0bc365	-0.03412189
172	0xbd2936e3	-0.04131211
173	0xbc6784ce	-0.014130784
174	0xbd6cb643	-0.057791006
175	0xbd40460f	-0.046941813
176	0xbd1b015d	-0.037843097
177	0xbba7d7fc	-0.005122183
178	0xb9cbca67	-0.0003886998
179	0xbc4f8401	-0.0126657495
180	0xbd1ad99d	-0.03780519
181	0xbc3b6f5e	-0.011440126
182	0xbdc959c8	-0.098315775
183	0xba727d54	-0.0009250243
184	0xbd259b1e	-0.040431134
185	0x3cc65da7	0.024214579
186	0xbd3a8bb9	-0.045543406
187	0xbc959a8b	-0.018262168
188	0xbdabfe11	-0.08398069
189	0xbcf9dfea	-0.030502278
190	0x3c727629	0.014798679
191	0xbd234470	-0.03986019
192	0xbb4dadab	-0.0031384032
193	0xbd685007	-0.056716945
194	0xbd438ed8	-0.04774365
195	0xbcfa89e6	-0.030583333
196	0xbd7bec60	-0.06150472
197	0xbd539fe3	-0.05166615
198	0xbcf00ff5	-0.029304484
199	0xbd452b12	-0.04813678
200	0xbdcd37a6	-0.1002038
201	0xbd0384e4	-0.032109156
202	0xbd6eacf2	-0.058270402
203	0xbd46f21c	-0.048570737
204	0xbd38e7c7	-0.045142915
205	0xbc8e94dc	-0.017404966
206	0xbc9a4990	-0.018833905
207	0xbd060463	-0.032719027
208	0xbc2c02bf	-0.010498702
209	0x3cb50ce4	0.022100873
210	0xbcc40eb2	-0.023932789
211	0xbd587af0	-0.052851617
212	0xbd61b50d	-0.055104304
213	0xbd2fcf24	-0.042922154
214	0xbd6633fb	-0.056201916
215	0xbced9526	-0.029001784
216	0xbd0481b6	-0.032350264
217	0x3c6525bd	0.013986048
218	0xbd8595ff	-0.0652275
219	0xbc25a194	-0.010109324
220	0xbd58ea6e	-0.052957945
221	0xbd4681f7	-0.048463788
222	0xbd59db7b	-0.05318783
223	0xbd4e4f2b	-0.05036847

arith.constant14 f4 [12]
0	0xbe0adfef	-0.13561986
1	0xbe093c95	-0.13402016
2	0x3c9f38bc	0.019436233
3	0xbd3697a5	-0.044578213
4	0x3d4bd4ab	0.049763363
5	0xbe3ff836	-0.18747029
6	0x3df2f95f	0.1186397
7	0xbc11abc0	-0.008891046
8	0xbd54eb3d	-0.051982153
9	0x3db04ed0	0.08608782
10	0xbbf12885	-0.0073595666
11	0x3d72452c	0.059148

arith.constant15 f4 [64]
0	0x3cabe173	0.020981526
1	0xbb778c4f	-0.003777284
2	0x3c3d8934	0.011568356
3	0xbcec57bf	-0.028850434
4	0x3c343188	0.010998137
5	0x3b4e76a4	0.003150382
6	0x3ce55501	0.027994635
7	0x3c80f2e7	0.015740825
8	0x3c418ae6	0.011812901
9	0x3cc0f7e9	0.023555713
10	0xbd326129	-0.04354969
11	0x3c88e65d	0.016711408
12	0x3cf3f475	0.029779652
13	0xbd9e52de	-0.077306494
14	0x3c58f018	0.013240837
15	0x3c284bb3	0.010271954
16	0x3cea95d7	0.028635902
17	0xbb925116	-0.0044652326
18	0x3c23ef26	0.010005748
19	0xbccc61cf	-0.024948983
20	0xba39685d	-0.0007072741
21	0x3c4294fc	0.011876341
22	0x3cdb1b68	0.026746467
23	0x3c89366c	0.016749583
24	0x38f7b803	0.00011812153
25	0x3c971885	0.018444309
26	0xbd174314	-0.036929205
27	0x3cdf9c66	0.027296256
28	0x3b9b97c9	0.004748319
29	0xbd1ea25c	-0.038729057
30	0x3c50f225	0.012753044
31	0x3ca77248	0.020440236
32	0x3cb6dc95	0.022321979
33	0x3c58a182	0.0132221
34	0x3c19c017	0.009384177
35	0xbd41fe7a	-0.04736183
36	0xbc47a39e	-0.0121850055
37	0x3c5eaa37	0.013590387
38	0x3c7d0d3e	0.015445052
39	0x3be1fa94	0.0068963263
40	0x3beb335e	0.0071777543
41	0x3ca9b55d	0.020716364
42	0xbd41c338	-0.047305316
43	0x3c571cfa	0.013129467
44	0x3ca21bc7	0.019788636
45	0xbd6128dd	-0.05497061
46	0x3c316842	0.01082808
47	0x3cc928d3	0.0245556
48	0x3cc097c1	0.023509862
49	0x3c0fd0da	0.008777821
50	0x3aabd3a4	0.0013109338
51	0xbd387f46	-0.045043252
52	0xbc46d6ae	-0.012136145
53	0x3c7b9399	0.015355014
54	0x3cde7651	0.027156027
55	0x3c219980	0.009863257
56	0x3c22f6a3	0.009946498
57	0x3cc154f2	0.023600075
58	0xbce60528	-0.02807863
59	0x3c876e4a	0.016532082
60	0x3cc8bb66	0.024503421
61	0xbd790880	-0.06079912
62	0x3c6c7bcf	0.014433815
63	0x3c7df1da	0.015499556

arith.constant16 f4 [2, 48]
0	0xb9251fb6	-0.0001574744
1	0xb90d8087	-0.00013494688
2	0xb9989527	-0.00029102826
3	0x39486ae2	0.00019113303
4	0xb932a698	-0.00017037464
5	0xb911342b	-0.00013847712
6	0x3958bb3e	0.00020669118
7	0x394ae98e	0.00019351227
8	0x38d6d414	0.00010243818
9	0xb90fb4dc	-0.00013704918
10	0x392dc247	0.0001657094
11	0x389c58f4	7.4552285e-05
12	0xb94bb827	-0.0001942819
13	0xb97c3bbe	-0.00024054848
14	0x39365485	0.00017388359
15	0xb8ebf58a	-0.000112514084
16	0x395bde5a	0.000209683
17	0xb93ebe89	-0.00018190792
18	0xb96e7c65	-0.0002274379
19	0xb93bf013	-0.00017923144
20	0xb921c028	-0.0001542574
21	0xb9566db3	-0.00020449497
22	0x391827e0	0.00014510704
23	0x3967a5c4	0.00022091629
24	0x393a481e	0.00017765208
25	0x396a4160	0.00022340333
26	0xb8f45854	-0.00011651279
27	0xb90e1d7e	-0.00013553162
28	0x38ca84ca	9.6568445e-05
29	0x393ae2f3	0.00017822887
30	0x396fc471	0.00022865996
31	0xb7580a6b	-1.2877029e-05
32	0x391b7a5b	0.00014827533
33	0x3913dd17	0.00014101375
34	0x37d8e7c3	2.5857129e-05
35	0x39940df6	0.00028239161
36	0x390f821c	0.00013686012
37	0xb93e9c48	-0.00018178031
38	0xb82ee25f	-4.1695657e-05
39	0xb9274304	-0.00015951326
40	0xb90b5c96	-0.00013290564
41	0xb932a464	-0.00017036643
42	0x390b2b52	0.00013272211
43	0xb949d120	-0.00019246759
44	0x38a9916c	8.085635e-05
45	0x36b8325d	5.4894904e-06
46	0xb90c2540	-0.00013365317
47	0x393f8308	0.00018263992
48	0xb98f37b4	-0.00027316588
49	0x39baecf3	0.00035653225
50	0x398308ee	0.0002499292
51	0x3931b5cf	0.00016947764
52	0xb7126385	-8.725449e-06
53	0x39851506	0.000253834
54	0x399c913f	0.00029862855
55	0x39c6ee21	0.00037942923
56	0x39b29870	0.0003406438
57	0x3970ac8f	0.00022952467
58	0xb9b84f27	-0.00035154188
59	0x3994f0e7	0.00028408246
60	0xb9c82405	-0.0003817381
61	0x394db414	0.00019617408
62	0x3992d020	0.00028002355
63	0xb8c57192	-9.414846e-05
64	0xb97fc9bd	-0.00024393848
65	0xb972e49c	-0.00023164082
66	0x399c6381	0.00029828775
67	0x39aa9fc9	0.00032543976
68	0x39a7ffb0	0.00032043224
69	0x39a510f2	0.00031483878
70	0x39af5f42	0.00033449574
71	0x39b4d0d9	0.0003448788
72	0x39813182	0.00024641684
73	0x39b10397	0.00033762745
74	0x398c468e	0.00026755448
75	0xb9b869a8	-0.00035173935
76	0xb9cf6a64	-0.00039561384
77	0x399e9dad	0.00030253586
78	0x39b96ac8	0.00035365508
79	0x3991907c	0.00027764204
80	0xb9864cb6	-0.00025615626
81	0x39c25196	0.0003706335
82	0x39844512	0.00025228463
83	0xb9c09cf8	-0.00036738045
84	0x39a896f6	0.00032155932
85	0xb979e724	-0.00023832597
86	0xb9949c03	-0.00028344998
87	0xb9e3d2ea	-0.00043453957
88	0xb98b3cdb	-0.00026557487
89	0xb9a75ae4	-0.0003192044
90	0xb99f6dff	-0.00030408797
91	0x399e981e	0.00030249445
92	0xb98fb1db	-0.00027407598
93	0x39a197d6	0.0003082144
94	0x39ad9a8c	0.00033112278
95	0x39c9ddeb	0.0003850305

arith.constant17 f4 [2, 48]
0	0xbd74eaac	-0.059794113
1	0xbdde7fc3	-0.10864212
2	0xbe04dc1e	-0.12974593
3	0x3e118965	0.14212568
4	0xbe21cd90	-0.15801072
5	0xbe1add23	-0.1512342
6	0x3df23351	0.11826194
7	0x3dee4409	0.116340704
8	0x3d65f07e	0.056137554
9	0xbe02a43c	-0.12757963
10	0x3e0bd969	0.13657154
11	0x3d92020d	0.071292974
12	0xbdeb7ab2	-0.11498012
13	0xbe11c217	-0.14234196
14	0x3df6d4df	0.12052321
15	0xbdf96146	-0.121767566
16	0x3e38352d	0.17989035
17	0xbdf7a90e	-0.120927915
18	0xbdfd914f	-0.12381231
19	0xbdf1a2b0	-0.11798608
20	0xbe0b0f22	-0.13579991
21	0xbe070a42	-0.13187507
22	0x3dc63cae	0.096795425
23	0x3de0d1e5	0.10977534
24	0x3dbe8830	0.093033195
25	0x3e329de1	0.17443039
26	0xbde4d2eb	-0.11173042
27	0xbdbb2029	-0.091369934
28	0x3e46da0d	0.19419117
29	0x3e5b4091	0.21411349
30	0x3e21aad2	0.15787819
31	0x3da96c99	0.082726665
32	0x3e3688b1	0.17825581
33	0x3dee2f21	0.11630083
34	0x3e25eb2c	0.16202992
35	0x3dfd39ec	0.12364563
36	0x3df0dfa9	0.1176141
37	0xbdddaad3	-0.10823598
38	0xbcfa8bf1	-0.030584307
39	0xbe116e1c	-0.1420216
40	0xbdcee7a5	-0.101027764
41	0xbdd63dbc	-0.10460994
42	0x3db34d23	0.08754947
43	0xbe37d1cd	-0.17951126
44	0x3e003751	0.12521102
45	0xbe0e8932	-0.13919523
46	0xbdf3ad6f	-0.11898314
47	0x3e219ff1	0.15783669
48	0x3e8a75ae	0.27042907
49	0xbeb4273e	-0.3518619
50	0xbe9af187	-0.30262396
51	0xbe93dcdd	-0.28879443
52	0x3dc3650e	0.09540759
53	0xbeacfa57	-0.33784744
54	0xbe973fb9	-0.29540804
55	0xbeb7dba1	-0.3590975
56	0xbebdf762	-0.371028
57	0xbe9aa28e	-0.30202144
58	0x3ea85780	0.32879257
59	0xbe9616be	-0.29314226
60	0x3ead93ea	0.33901912
61	0xbe85ad2d	-0.26108685
62	0xbea5a8e6	-0.32355422
63	0x3ba20674	0.004944617
64	0x3e7ead28	0.24870741
65	0x3ea00ca8	0.31259656
66	0xbea0cc21	-0.31405738
67	0xbea2c3ad	-0.31789914
68	0xbeae0670	-0.33989286
69	0xbe98c414	-0.29837096
70	0xbeb06f0d	-0.34459725
71	0xbe761ee2	-0.24035218
72	0xbea27042	-0.3172627
73	0xbea13c23	-0.31491193
74	0xbeab19a0	-0.33417988
75	0x3ea89533	0.3292633
76	0x3eb804c8	0.35941148
77	0xbea3fd29	-0.32029083
78	0xbe986ec8	-0.2977202
79	0xbea98f7d	-0.33117285
80	0x3e9f339a	0.31094056
81	0xbea2756d	-0.31730214
82	0xbe87b5c2	-0.26505858
83	0x3e967966	0.29389495
84	0xbe8499f9	-0.25898722
85	0x3e43b14f	0.19110607
86	0x3e8ecd5b	0.2789105
87	0x3eb26d71	0.34849122
88	0x3e8bea88	0.2732737
89	0x3ea6d5a6	0.32584876
90	0x3ea2c5cc	0.31791532
91	0xbeadb044	-0.33923542
92	0x3e909809	0.28240994
93	0xbe9c754d	-0.30558243
94	0xbec16ff2	-0.3778072
95	0xbea39f5d	-0.31957522

arith.constant18 f4 [2, 48]
0	0x3b8ff04c	0.0043926593
1	0x3be485cf	0.006973959
2	0xbbc3aafc	-0.0059713107
3	0xbd138982	-0.03601981
4	0xbbd5a8c1	-0.006520361
5	0xbb26f05a	-0.002547285
6	0x3b55ddbd	0.0032633387
7	0x3b93f674	0.0045154635
8	0x3c0495a2	0.008092316
9	0x3b4a93df	0.0030910892
10	0xbb2a6f77	-0.002600638
11	0x3c898b5a	0.01679008
12	0xbbcb0d4c	-0.0061966535
13	0xbcd2e8d4	-0.025745787
14	0x3b1c2fa5	0.002383211
15	0x3bbdbd2f	0.0057903747
16	0xbba028c1	-0.0048876707
17	0x3a34a4b0	0.00068909954
18	0x3caff1cf	0.021477608
19	0xbc19d015	-0.0093879895
20	0xb9ac92db	-0.00032915812
21	0xbcf54e3c	-0.029944532
22	0x3c9e61f1	0.019333811
23	0x3c622b3b	0.013804252
24	0xbb9d1c05	-0.0047946
25	0x3d1ef3a1	0.03880656
26	0x3bdf5e79	0.006816682
27	0x3b9dcb8b	0.004815524
28	0xbbfb91ee	-0.0076773083
29	0x3b7c7773	0.0038523346
30	0xbba241da	-0.004951698
31	0xbcab5e51	-0.020918997
32	0xbb411937	-0.0029464492
33	0xbb7f0137	-0.0038910636
34	0x3cd997bb	0.026561609
35	0x3aab9250	0.0013089869
36	0x3b9e5e7d	0.004833041
37	0xbc46996a	-0.012121538
38	0xbade90dd	-0.0016980428
39	0x3cd6d045	0.026222358
40	0x3a8b0151	0.0010605251
41	0xbb854fd6	-0.004068355
42	0xbc0735ae	-0.008252544
43	0x3d0956e8	0.033530146
44	0xbbaae2c1	-0.0052150195
45	0x3c2e9395	0.0106553035
46	0x3ba61493	0.0050683706
47	0xbd053d04	-0.032528892
48	0x3bb61580	0.005556762
49	0xbc4618b4	-0.012090851
50	0x3a336260	0.0006842967
51	0xbc065735	-0.008199503
52	0x3ba1580f	0.0049238275
53	0x3c460a1a	0.012087369
54	0x3be2b462	0.006918476
55	0x3be7f892	0.0070791924
56	0xbc4487c3	-0.011995259
57	0x3bc87c15	0.0061183074
58	0x3b378023	0.002799996
59	0x3b1fc703	0.0024380095
60	0xbb3957c6	-0.0028281077
61	0xb875b81b	-5.8584013e-05
62	0x3ae3b0cb	0.0017371414
63	0xbad845ca	-0.0016500291
64	0xba4fd609	-0.0007928317
65	0xbc95aa48	-0.018269673
66	0xbb6da3e3	-0.0036261014
67	0xbb8ad6a5	-0.0042370134
68	0x3be4a6e2	0.006977902
69	0x39205b5a	0.0001529282
70	0x3ba24043	0.0049515083
71	0x3b6c2596	0.0036033145
72	0xbc535fb5	-0.012901236
73	0x3cb9e469	0.022691922
74	0xbbbcb537	-0.005758907
75	0xbb814b53	-0.003945747
76	0xbc55a89d	-0.013040689
77	0xbbde280d	-0.006779677
78	0x3c9530e0	0.018211782
79	0xbb81058a	-0.003937428
80	0x3c89619e	0.01677018
81	0xbc871972	-0.016491625
82	0xbb5db83c	-0.0033831736
83	0xbcdb13db	-0.026742866
84	0x3cd05bb0	0.025434345
85	0xbcf96403	-0.030443197
86	0xba09df6c	-0.00052594277
87	0x3c2a7696	0.01040425
88	0x3aa4e0f0	0.0012579244
89	0x398e7617	0.00027172334
90	0xbc952f0f	-0.018210916
91	0xbc098c80	-0.008395314
92	0xbb980c43	-0.0046401336
93	0xbaeffd32	-0.0018309711
94	0x3ce59871	0.028026791
95	0xbca295e9	-0.019846873

arith.constant23 f4 [16]
0	0xbd238002	-0.039917
1	0x3aa90e60	0.0012897961
2	0xbd348884	-0.044075504
3	0xbba2d010	-0.0049686506
4	0x3d198814	0.03748329
5	0xbcde3100	-0.027122974
6	0xbc333f22	-0.010940345
7	0xbd043a1f	-0.03228199
8	0xbca37533	-0.019953346
9	0xbb7b0401	-0.0038301947
10	0xbba24802	-0.0049524317
11	0xbc296102	-0.01033807
12	0xbbe0548a	-0.0068460153
13	0x3afe39dd	0.0019395907
14	0xbbd3ca03	-0.0064632907
15	0xbc08d34f	-0.008351161

tfl.pseudo_qconst i1 [64, 96]
0	0xf9	-7
1	0xdd	-35
2	0xee	-18
3	0xf1	-15
4	0x30	48
5	0xc1	-63
6	0x87	-121
7	0x00	0
8	0xfb	-5
9	0x12	18
10	0x0c	12
11	0x99	-103
12	0x65	101
13	0xc8	-56
14	0x4e	78
15	0xd7	-41
16	0x04	4
17	0x3a	58
18	0xcc	-52
19	0x14	20
20	0xcc	-52
21	0xde	-34
22	0x35	53
23	0xd2	-46
24	0x24	36
25	0x81	-127
26	0x42	66
27	0x1b	27
28	0xd3	-45
29	0xe2	-30
30	0xeb	-21
31	0xf5	-11
32	0xd5	-43
33	0xd1	-47
34	0xef	-17
35	0xfb	-5
36	0x19	25
37	0x8c	-116
38	0x4c	76
39	0xcc	-52
40	0x7b	123
41	0xb9	-71
42	0x14	20
43	0x02	2
44	0xc7	-57
45	0xfb	-5
46	0x23	35
47	0x2e	46
48	0x12	18
49	0x50	80
50	0xeb	-21
51	0xfe	-2
52	0x2e	46
53	0xc0	-64
54	0xf7	-9
55	0x1f	31
56	0x10	16
57	0xe7	-25
58	0x63	99
59	0x32	50
60	0xe3	-29
61	0xf2	-14
62	0xd6	-42
63	0xfc	-4
64	0x43	67
65	0x68	104
66	0x02	2
67	0xe7	-25
68	0x54	84
69	0xd3	-45
70	0xf6	-10
71	0xec	-20
72	0x08	8
73	0x25	37
74	0xe2	-30
75	0xac	-84
76	0x35	53
77	0xdb	-37
78	0x79	121
79	0xea	-22
80	0xae	-82
81	0x27	39
82	0x9b	-101
83	0x5d	93
84	0xf6	-10
85	0x4b	75
86	0xdf	-33
87	0x9d	-99
88	0x0c	12
89	0x08	8
90	0x12	18
91	0x24	36
92	0xee	-18
93	0x9c	-100
94	0x03	3
95	0x20	32
96	0xd1	-47
97	0x0a	10
98	0xf6	-10
99	0xc0	-64
100	0xa0	-96
101	0x24	36
102	0x66	102
103	0xed	-19
104	0x14	20
105	0xef	-17
106	0x2a	42
107	0xc8	-56
108	0x85	-123
109	0x53	83
110	0x18	24
111	0xd6	-42
112	0x46	70
113	0xd0	-48
114	0x8e	-114
115	0xe6	-26
116	0xc2	-62
117	0xdd	-35
118	0x2b	43
119	0xe4	-28
120	0x28	40
121	0x69	105
122	0x00	0
123	0xed	-19
124	0x0e	14
125	0x1f	31
126	0x0f	15
127	0xeb	-21
128	0x16	22
129	0xfe	-2
130	0x4f	79
131	0x09	9
132	0xe3	-29
133	0x0e	14
134	0x07	7
135	0x38	56
136	0x2b	43
137	0x09	9
138	0x11	17
139	0xce	-50
140	0xf9	-7
141	0xf6	-10
142	0xc1	-63
143	0x9f	-97
144	0xfb	-5
145	0xd1	-47
146	0x07	7
147	0xf3	-13
148	0x00	0
149	0x09	9
150	0x09	9
151	0xec	-20
152	0xc5	-59
153	0x09	9
154	0xcd	-51
155	0xf7	-9
156	0x33	51
157	0x0d	13
158	0x12	18
159	0xe9	-23
160	0x3a	58
161	0x7f	127
162	0x1c	28
163	0x1a	26
164	0xee	-18
165	0x19	25
166	0x13	19
167	0x24	36
168	0xb4	-76
169	0x90	-112
170	0x2f	47
171	0xc4	-60
172	0xfa	-6
173	0xfc	-4
174	0x23	35
175	0x0d	13
176	0xba	-70
177	0x24	36
178	0xf4	-12
179	0x07	7
180	0x6b	107
181	0xc6	-58
182	0x32	50
183	0x14	20
184	0xf2	-14
185	0x33	51
186	0x55	85
187	0x18	24
188	0xd4	-44
189	0x1e	30
190	0x39	57
191	0x09	9
192	0xc9	-55
193	0xd4	-44
194	0x25	37
195	0xbf	-65
196	0xe0	-32
197	0x0e	14
198	0xeb	-21
199	0x20	32
200	0x21	33
201	0xc2	-62
202	0x0a	10
203	0x41	65
204	0xd7	-41
205	0x16	22
206	0x06	6
207	0x9a	-102
208	0x06	6
209	0xf1	-15
210	0x0a	10
211	0xed	-19
212	0x41	65
213	0x03	3
214	0x4a	74
215	0xe0	-32
216	0xfc	-4
217	0x95	-107
218	0xdd	-35
219	0xe1	-31
220	0x2b	43
221	0xf8	-8
222	0xfb	-5
223	0x45	69
224	0xf5	-11
225	0xed	-19
226	0x93	-109
227	0x5a	90
228	0xdd	-35
229	0x35	53
230	0x02	2
231	0x7f	127
232	0x1e	30
233	0x2e	46
234	0x39	57
235	0x17	23
236	0xe7	-25
237	0xca	-54
238	0xa7	-89
239	0x9b	-101
240	0x0c	12
241	0xeb	-21
242	0xd9	-39
243	0xe7	-25
244	0x0b	11
245	0xc1	-63
246	0xde	-34
247	0xfc	-4
248	0x30	48
249	0xd9	-39
250	0xec	-20
251	0xdc	-36
252	0x1a	26
253	0x43	67
254	0x53	83
255	0xeb	-21

tfl.pseudo_qconst1 i1 [96, 64]
0	0xe7	-25
1	0x35	53
2	0xea	-22
3	0xf4	-12
4	0xfb	-5
5	0xad	-83
6	0x01	1
7	0xd1	-47
8	0x18	24
9	0x25	37
10	0xe7	-25
11	0xfb	-5
12	0xcf	-49
13	0x15	21
14	0xf8	-8
15	0xee	-18
16	0x25	37
17	0x0a	10
18	0x0e	14
19	0x34	52
20	0xbc	-68
21	0xc5	-59
22	0x2b	43
23	0xf0	-16
24	0x02	2
25	0x02	2
26	0x1e	30
27	0x09	9
28	0x09	9
29	0x0d	13
30	0xe0	-32
31	0xf5	-11
32	0xcd	-51
33	0x2b	43
34	0xc1	-63
35	0x29	41
36	0xbc	-68
37	0xc5	-59
38	0xf7	-9
39	0x17	23
40	0xc3	-61
41	0x07	7
42	0xd2	-46
43	0xf5	-11
44	0x00	0
45	0x01	1
46	0xda	-38
47	0xfa	-6
48	0x0c	12
49	0x14	20
50	0xca	-54
51	0xde	-34
52	0xe0	-32
53	0x81	-127
54	0x09	9
55	0x19	25
56	0xf7	-9
57	0xd6	-42
58	0xca	-54
59	0x1f	31
60	0x08	8
61	0xd9	-39
62	0x26	38
63	0x12	18
64	0xe4	-28
65	0xc3	-61
66	0xed	-19
67	0xfe	-2
68	0xac	-84
69	0x03	3
70	0xc8	-56
71	0x08	8
72	0xcf	-49
73	0x13	19
74	0xc4	-60
75	0xea	-22
76	0x1a	26
77	0x4c	76
78	0xeb	-21
79	0xd4	-44
80	0xde	-34
81	0x15	21
82	0xd3	-45
83	0xfa	-6
84	0xa0	-96
85	0xd5	-43
86	0x12	18
87	0x29	41
88	0x32	50
89	0x02	2
90	0xbe	-66
91	0x11	17
92	0x19	25
93	0x0a	10
94	0xcf	-49
95	0xf9	-7
96	0xf5	-11
97	0x09	9
98	0xb8	-72
99	0xb5	-75
100	0x81	-127
101	0xdb	-37
102	0xc2	-62
103	0xde	-34
104	0xe1	-31
105	0xfe	-2
106	0xea	-22
107	0xc5	-59
108	0xe0	-32
109	0x59	89
110	0xfe	-2
111	0xf8	-8
112	0xbc	-68
113	0x0d	13
114	0xbd	-67
115	0xc0	-64
116	0xb5	-75
117	0xac	-84
118	0xcc	-52
119	0x9b	-101
120	0xd5	-43
121	0x1b	27
122	0x11	17
123	0x1c	28
124	0xc5	-59
125	0x02	2
126	0x25	37
127	0x15	21
128	0x27	39
129	0x1b	27
130	0x35	53
131	0x02	2
132	0xdb	-37
133	0xd0	-48
134	0xbc	-68
135	0x0f	15
136	0x81	-127
137	0xe9	-23
138	0x28	40
139	0x06	6
140	0x41	65
141	0x32	50
142	0x39	57
143	0xcb	-53
144	0xf5	-11
145	0xf3	-13
146	0xbb	-69
147	0x27	39
148	0x21	33
149	0x08	8
150	0xcf	-49
151	0x27	39
152	0x05	5
153	0x20	32
154	0xf5	-11
155	0xe1	-31
156	0xd9	-39
157	0x00	0
158	0x37	55
159	0xd6	-42
160	0x3d	61
161	0xe9	-23
162	0xd0	-48
163	0xe5	-27
164	0x11	17
165	0xd1	-47
166	0xec	-20
167	0x46	70
168	0xbd	-67
169	0x24	36
170	0x3d	61
171	0xc6	-58
172	0x32	50
173	0xb7	-73
174	0x35	53
175	0x11	17
176	0xf6	-10
177	0x04	4
178	0x01	1
179	0x13	19
180	0x18	24
181	0xce	-50
182	0xe7	-25
183	0xe5	-27
184	0xa8	-88
185	0xd6	-42
186	0xf1	-15
187	0xe5	-27
188	0x53	83
189	0x05	5
190	0x29	41
191	0xe1	-31
192	0xf5	-11
193	0x2e	46
194	0x6c	108
195	0x35	53
196	0x0c	12
197	0xf8	-8
198	0x06	6
199	0xd0	-48
200	0x03	3
201	0xf5	-11
202	0x35	53
203	0x34	52
204	0x29	41
205	0x7f	127
206	0xf1	-15
207	0x13	19
208	0x11	17
209	0x1b	27
210	0x2d	45
211	0x1d	29
212	0x1f	31
213	0xf8	-8
214	0xf5	-11
215	0x93	-109
216	0x17	23
217	0xd6	-42
218	0x27	39
219	0x00	0
220	0xea	-22
221	0x68	104
222	0x27	39
223	0x22	34
224	0xe7	-25
225	0x46	70
226	0x3b	59
227	0xf0	-16
228	0x1f	31
229	0x01	1
230	0xc9	-55
231	0xd1	-47
232	0x13	19
233	0xd6	-42
234	0x35	53
235	0x0c	12
236	0x27	39
237	0x13	19
238	0x08	8
239	0xf3	-13
240	0x32	50
241	0x41	65
242	0x57	87
243	0xe5	-27
244	0xd4	-44
245	0x28	40
246	0x03	3
247	0x90	-112
248	0x28	40
249	0x1d	29
250	0xfb	-5
251	0xee	-18
252	0x13	19
253	0x21	33
254	0x21	33
255	0x17	23

tfl.pseudo_qconst2 i1 [96, 64]
0	0xb5	-75
1	0xc9	-55
2	0x11	17
3	0xd8	-40
4	0xdb	-37
5	0xe6	-26
6	0xfa	-6
7	0x10	16
8	0x8d	-115
9	0x07	7
10	0x1b	27
11	0x01	1
12	0x06	6
13	0xfb	-5
14	0x05	5
15	0xf7	-9
16	0x83	-125
17	0xcf	-49
18	0x08	8
19	0xc5	-59
20	0xee	-18
21	0x19	25
22	0x08	8
23	0x18	24
24	0xe1	-31
25	0xe9	-23
26	0x03	3
27	0x0b	11
28	0x06	6
29	0xe4	-28
30	0x0c	12
31	0xfd	-3
32	0x81	-127
33	0xcf	-49
34	0xf0	-16
35	0xd2	-46
36	0x15	21
37	0x33	51
38	0xfb	-5
39	0x1f	31
40	0xb8	-72
41	0xf4	-12
42	0xed	-19
43	0x03	3
44	0xf6	-10
45	0xc9	-55
46	0x00	0
47	0x01	1
48	0x95	-107
49	0xf1	-15
50	0xe8	-24
51	0xf5	-11
52	0x4e	78
53	0x03	3
54	0xf2	-14
55	0xf0	-16
56	0xe3	-29
57	0xfa	-6
58	0xf9	-7
59	0x03	3
60	0xf3	-13
61	0xc2	-62
62	0xff	-1
63	0xf6	-10
64	0xbf	-65
65	0xbe	-66
66	0xf6	-10
67	0x06	6
68	0xc0	-64
69	0xec	-20
70	0x05	5
71	0x23	35
72	0x81	-127
73	0x09	9
74	0x1f	31
75	0x08	8
76	0xf4	-12
77	0xfa	-6
78	0x05	5
79	0x07	7
80	0xac	-84
81	0xac	-84
82	0xf7	-9
83	0xd4	-44
84	0xf1	-15
85	0x40	64
86	0x0d	13
87	0x4e	78
88	0xcd	-51
89	0xf1	-15
90	0x11	17
91	0xfa	-6
92	0x0d	13
93	0xe8	-24
94	0xfc	-4
95	0xf3	-13
96	0xa9	-87
97	0xcd	-51
98	0xe8	-24
99	0xee	-18
100	0x17	23
101	0x37	55
102	0x09	9
103	0x45	69
104	0x9f	-97
105	0xf2	-14
106	0xee	-18
107	0xf7	-9
108	0x07	7
109	0xd6	-42
110	0x07	7
111	0xf7	-9
112	0xbc	-68
113	0xe1	-31
114	0xef	-17
115	0xff	-1
116	0x56	86
117	0x02	2
118	0x01	1
119	0x1a	26
120	0xca	-54
121	0xf4	-12
122	0x0a	10
123	0xf5	-11
124	0xf5	-11
125	0xc7	-57
126	0x0b	11
127	0x03	3
128	0xe4	-28
129	0xbf	-65
130	0xf2	-14
131	0x00	0
132	0xcd	-51
133	0xeb	-21
134	0x06	6
135	0x29	41
136	0x8f	-113
137	0x07	7
138	0x21	33
139	0xfb	-5
140	0x01	1
141	0x04	4
142	0xff	-1
143	0x0b	11
144	0xed	-19
145	0xb0	-80
146	0xf8	-8
147	0xd7	-41
148	0x03	3
149	0x49	73
150	0xf9	-7
151	0x40	64
152	0xc9	-55
153	0xf6	-10
154	0xf4	-12
155	0xf6	-10
156	0x04	4
157	0xd2	-46
158	0xfa	-6
159	0xfd	-3
160	0x12	18
161	0xdc	-36
162	0xfd	-3
163	0xe1	-31
164	0x15	21
165	0x2c	44
166	0xfb	-5
167	0x2b	43
168	0xac	-84
169	0xf3	-13
170	0xd7	-41
171	0xef	-17
172	0xf5	-11
173	0xc5	-59
174	0x01	1
175	0xf9	-7
176	0xf6	-10
177	0xe9	-23
178	0x04	4
179	0xf0	-16
180	0x7f	127
181	0xda	-38
182	0x00	0
183	0x0b	11
184	0xd1	-47
185	0xf2	-14
186	0x07	7
187	0xed	-19
188	0xfc	-4
189	0xba	-70
190	0x06	6
191	0xff	-1
192	0x4f	79
193	0x55	85
194	0x11	17
195	0x05	5
196	0x40	64
197	0x02	2
198	0xf3	-13
199	0xae	-82
200	0x7f	127
201	0xf7	-9
202	0xdf	-33
203	0x0c	12
204	0xfb	-5
205	0x09	9
206	0xf4	-12
207	0xf8	-8
208	0x69	105
209	0x57	87
210	0x00	0
211	0x0e	14
212	0x18	24
213	0xb1	-79
214	0xfc	-4
215	0xa8	-88
216	0x42	66
217	0x22	34
218	0xfb	-5
219	0x0f	15
220	0x0b	11
221	0x11	17
222	0x00	0
223	0x0b	11
224	0x40	64
225	0x45	69
226	0xf9	-7
227	0xfd	-3
228	0x00	0
229	0xb8	-72
230	0xf4	-12
231	0x9f	-97
232	0x7e	126
233	0x05	5
234	0x07	7
235	0x10	16
236	0x07	7
237	0x2f	47
238	0x05	5
239	0xf8	-8
240	0x3d	61
241	0x2f	47
242	0x0d	13
243	0x05	5
244	0x9a	-102
245	0x02	2
246	0x0f	15
247	0xc0	-64
248	0x3f	63
249	0x1f	31
250	0xed	-19
251	0x05	5
252	0x02	2
253	0x50	80
254	0x0e	14
255	0xfb	-5

tfl.pseudo_qconst3 i1 [96, 64]
0	0x0b	11
1	0x38	56
2	0x23	35
3	0x4e	78
4	0xf3	-13
5	0xef	-17
6	0xf0	-16
7	0x1b	27
8	0x47	71
9	0xe3	-29
10	0x3b	59
11	0xfd	-3
12	0x0b	11
13	0x6c	108
14	0xef	-17
15	0x06	6
16	0xd9	-39
17	0x1d	29
18	0x0e	14
19	0x29	41
20	0xe7	-25
21	0x27	39
22	0xf0	-16
23	0x25	37
24	0x27	39
25	0xdb	-37
26	0x2c	44
27	0x0f	15
28	0x02	2
29	0x45	69
30	0xf6	-10
31	0x02	2
32	0xe9	-23
33	0x24	36
34	0xe9	-23
35	0xe3	-29
36	0xb1	-79
37	0x57	87
38	0xf7	-9
39	0x10	16
40	0x0d	13
41	0xe4	-28
42	0xf1	-15
43	0x0b	11
44	0x08	8
45	0x30	48
46	0x10	16
47	0x05	5
48	0xdf	-33
49	0x7f	127
50	0xb3	-77
51	0xf0	-16
52	0x94	-108
53	0x68	104
54	0xf1	-15
55	0x3e	62
56	0x2e	46
57	0xec	-20
58	0x0d	13
59	0xf6	-10
60	0x10	16
61	0x4f	79
62	0xf7	-9
63	0xfa	-6
64	0x07	7
65	0x23	35
66	0x01	1
67	0x3a	58
68	0x05	5
69	0xfd	-3
70	0x09	9
71	0x55	85
72	0x2c	44
73	0xf7	-9
74	0x4a	74
75	0x15	21
76	0xf5	-11
77	0x3c	60
78	0x0c	12
79	0x08	8
80	0xdd	-35
81	0x10	16
82	0x11	17
83	0x2b	43
84	0xdc	-36
85	0x06	6
86	0x0e	14
87	0x46	70
88	0x07	7
89	0xe3	-29
90	0x25	37
91	0x0c	12
92	0xf4	-12
93	0x3e	62
94	0xf5	-11
95	0x01	1
96	0xd0	-48
97	0x2e	46
98	0xdb	-37
99	0x1c	28
100	0xb8	-72
101	0x2b	43
102	0x01	1
103	0x38	56
104	0xff	-1
105	0xe4	-28
106	0x10	16
107	0xf0	-16
108	0x05	5
109	0x35	53
110	0xf8	-8
111	0x04	4
112	0xf0	-16
113	0x50	80
114	0xde	-34
115	0x23	35
116	0x81	-127
117	0x38	56
118	0x03	3
119	0x72	114
120	0x09	9
121	0xdf	-33
122	0x0f	15
123	0xff	-1
124	0xf5	-11
125	0x5a	90
126	0x06	6
127	0x0e	14
128	0x04	4
129	0x2d	45
130	0x1e	30
131	0x62	98
132	0x0b	11
133	0xc5	-59
134	0xf5	-11
135	0x3d	61
136	0x10	16
137	0x01	1
138	0x7d	125
139	0x00	0
140	0x0f	15
141	0x67	103
142	0x03	3
143	0x01	1
144	0xc4	-60
145	0x01	1
146	0x32	50
147	0x48	72
148	0xe0	-32
149	0xf3	-13
150	0xf2	-14
151	0x5e	94
152	0x06	6
153	0xe9	-23
154	0x51	81
155	0x0a	10
156	0xef	-17
157	0x5b	91
158	0xf8	-8
159	0xf3	-13
160	0xdb	-37
161	0x14	20
162	0xf1	-15
163	0x18	24
164	0xad	-83
165	0x3f	63
166	0xf5	-11
167	0x3b	59
168	0xe2	-30
169	0xf1	-15
170	0x09	9
171	0xee	-18
172	0x06	6
173	0x61	97
174	0x03	3
175	0xfb	-5
176	0xc9	-55
177	0x61	97
178	0xc1	-63
179	0x32	50
180	0x81	-127
181	0x44	68
182	0xf8	-8
183	0x69	105
184	0x1d	29
185	0xe2	-30
186	0x23	35
187	0x01	1
188	0x0c	12
189	0x79	121
190	0xfd	-3
191	0xf9	-7
192	0x09	9
193	0xec	-20
194	0x05	5
195	0xd7	-41
196	0xf8	-8
197	0x17	23
198	0x10	16
199	0xa4	-92
200	0xda	-38
201	0x06	6
202	0xc0	-64
203	0xef	-17
204	0xfe	-2
205	0xd4	-44
206	0xfc	-4
207	0x00	0
208	0x22	34
209	0xf3	-13
210	0xec	-20
211	0xd0	-48
212	0x18	24
213	0xec	-20
214	0x0d	13
215	0x9c	-100
216	0xeb	-21
217	0x03	3
218	0xc7	-57
219	0xf5	-11
220	0xf7	-9
221	0xd5	-43
222	0x07	7
223	0x01	1
224	0x16	22
225	0xf1	-15
226	0x16	22
227	0xdb	-37
228	0x48	72
229	0xc4	-60
230	0x08	8
231	0xa4	-92
232	0x13	19
233	0x04	4
234	0xed	-19
235	0xfb	-5
236	0x07	7
237	0xc3	-61
238	0x07	7
239	0xfb	-5
240	0x0c	12
241	0xd5	-43
242	0x24	36
243	0xd9	-39
244	0x6d	109
245	0xd0	-48
246	0x01	1
247	0x81	-127
248	0xf3	-13
249	0x0f	15
250	0xd7	-41
251	0xfa	-6
252	0x0d	13
253	0xba	-70
254	0x07	7
255	0x03	3

tfl.pseudo_qconst4 i1 [16, 3, 3, 96]
0	0xf8	-8
1	0xe5	-27
2	0xef	-17
3	0xdf	-33
4	0x34	52
5	0xef	-17
6	0xf5	-11
7	0x09	9
8	0x1c	28
9	0x11	17
10	0xe7	-25
11	0x13	19
12	0xde	-34
13	0xd3	-45
14	0x16	22
15	0xdf	-33
16	0x04	4
17	0xff	-1
18	0xee	-18
19	0xe0	-32
20	0xfc	-4
21	0xc8	-56
22	0xf5	-11
23	0xfb	-5
24	0x58	88
25	0x13	19
26	0x14	20
27	0x17	23
28	0xdc	-36
29	0xe4	-28
30	0xec	-20
31	0xe9	-23
32	0xe6	-26
33	0x0b	11
34	0x2a	42
35	0x17	23
36	0xfb	-5
37	0x1a	26
38	0xf2	-14
39	0xf2	-14
40	0x0a	10
41	0xf2	-14
42	0x06	6
43	0x08	8
44	0xfe	-2
45	0xe9	-23
46	0xf8	-8
47	0xf7	-9
48	0xf8	-8
49	0xe4	-28
50	0xeb	-21
51	0xe8	-24
52	0x10	16
53	0xd1	-47
54	0xf7	-9
55	0xf2	-14
56	0x07	7
57	0x0a	10
58	0x12	18
59	0xf7	-9
60	0xfd	-3
61	0x0a	10
62	0xec	-20
63	0x12	18
64	0x0e	14
65	0x1d	29
66	0x1e	30
67	0x21	33
68	0xeb	-21
69	0xfa	-6
70	0x03	3
71	0x18	24
72	0x16	22
73	0x13	19
74	0x08	8
75	0xf1	-15
76	0xf7	-9
77	0xfa	-6
78	0xe6	-26
79	0xfa	-6
80	0x0f	15
81	0x11	17
82	0x08	8
83	0xea	-22
84	0xdc	-36
85	0xf1	-15
86	0x14	20
87	0x01	1
88	0x18	24
89	0xf2	-14
90	0x01	1
91	0x11	17
92	0x19	25
93	0xf5	-11
94	0x1b	27
95	0xe5	-27
96	0xf3	-13
97	0x01	1
98	0xe7	-25
99	0xea	-22
100	0x13	19
101	0xf9	-7
102	0xf2	-14
103	0xfd	-3
104	0xfe	-2
105	0x19	25
106	0xfb	-5
107	0x08	8
108	0xff	-1
109	0x17	23
110	0x05	5
111	0x07	7
112	0xfd	-3
113	0xdf	-33
114	0xf2	-14
115	0xf4	-12
116	0xe7	-25
117	0xfb	-5
118	0xf8	-8
119	0xe1	-31
120	0x47	71
121	0xe1	-31
122	0xfe	-2
123	0x08	8
124	0xdf	-33
125	0x14	20
126	0x43	67
127	0xe4	-28
128	0xea	-22
129	0xe3	-29
130	0x2d	45
131	0xe4	-28
132	0xe2	-30
133	0xdd	-35
134	0xf9	-7
135	0xda	-38
136	0xef	-17
137	0x09	9
138	0x10	16
139	0xd4	-44
140	0xf9	-7
141	0x00	0
142	0xe3	-29
143	0x0d	13
144	0x0a	10
145	0x14	20
146	0x1a	26
147	0xe4	-28
148	0x1c	28
149	0x0f	15
150	0xff	-1
151	0x0c	12
152	0xe6	-26
153	0x00	0
154	0x05	5
155	0xe8	-24
156	0x07	7
157	0xf9	-7
158	0x03	3
159	0x12	18
160	0x09	9
161	0x19	25
162	0xee	-18
163	0x33	51
164	0x07	7
165	0x4d	77
166	0x00	0
167	0xf9	-7
168	0xea	-22
169	0x15	21
170	0xf4	-12
171	0xee	-18
172	0xff	-1
173	0x03	3
174	0x12	18
175	0x0a	10
176	0xe4	-28
177	0x0f	15
178	0x0f	15
179	0xb7	-73
180	0xe2	-30
181	0x04	4
182	0x07	7
183	0x0f	15
184	0x07	7
185	0x1d	29
186	0x08	8
187	0x1b	27
188	0x0f	15
189	0xe3	-29
190	0x17	23
191	0xf2	-14
192	0xef	-17
193	0x0e	14
194	0x11	17
195	0xfb	-5
196	0xec	-20
197	0xe5	-27
198	0x17	23
199	0xeb	-21
200	0xf8	-8
201	0xf0	-16
202	0xfc	-4
203	0xea	-22
204	0xda	-38
205	0xe3	-29
206	0x08	8
207	0x06	6
208	0xfd	-3
209	0xe2	-30
210	0x02	2
211	0xe6	-26
212	0xfa	-6
213	0xef	-17
214	0xdb	-37
215	0xf6	-10
216	0xe1	-31
217	0xf6	-10
218	0xea	-22
219	0x1a	26
220	0xf5	-11
221	0xfb	-5
222	0xf7	-9
223	0x17	23
224	0x01	1
225	0xe6	-26
226	0x06	6
227	0xf6	-10
228	0x08	8
229	0xea	-22
230	0xfa	-6
231	0xee	-18
232	0x0d	13
233	0xfd	-3
234	0x11	17
235	0x09	9
236	0x02	2
237	0xff	-1
238	0x08	8
239	0x0c	12
240	0x06	6
241	0xff	-1
242	0x07	7
243	0xe9	-23
244	0xf8	-8
245	0xfd	-3
246	0x03	3
247	0x1b	27
248	0x09	9
249	0xee	-18
250	0xeb	-21
251	0xfa	-6
252	0xf3	-13
253	0xf9	-7
254	0x08	8
255	0xea	-22

tfl.pseudo_qconst5 i1 [12, 224]
0	0x1c	28
1	0xe2	-30
2	0x11	17
3	0xfc	-4
4	0x03	3
5	0xe9	-23
6	0x27	39
7	0x39	57
8	0x29	41
9	0x09	9
10	0x17	23
11	0x05	5
12	0xdb	-37
13	0xb8	-72
14	0x16	22
15	0x30	48
16	0xf0	-16
17	0xb9	-71
18	0xf6	-10
19	0x28	40
20	0x05	5
21	0x01	1
22	0x26	38
23	0x32	50
24	0x04	4
25	0xe8	-24
26	0xe3	-29
27	0x22	34
28	0xc2	-62
29	0x18	24
30	0x18	24
31	0x17	23
32	0xe4	-28
33	0xe0	-32
34	0x0d	13
35	0xfb	-5
36	0x0a	10
37	0x08	8
38	0x2f	47
39	0xfc	-4
40	0xf5	-11
41	0x1b	27
42	0x05	5
43	0xe1	-31
44	0x1a	26
45	0x0d	13
46	0xec	-20
47	0x10	16
48	0xee	-18
49	0xc3	-61
50	0x12	18
51	0x1c	28
52	0x0c	12
53	0x23	35
54	0xd7	-41
55	0xc9	-55
56	0xe0	-32
57	0xcd	-51
58	0xff	-1
59	0xf8	-8
60	0x0e	14
61	0x05	5
62	0x22	34
63	0xd5	-43
64	0x24	36
65	0xd8	-40
66	0xf7	-9
67	0x0a	10
68	0xeb	-21
69	0x15	21
70	0xe9	-23
71	0x07	7
72	0xdc	-36
73	0xd5	-43
74	0x07	7
75	0x00	0
76	0xee	-18
77	0xf5	-11
78	0xf8	-8
79	0x09	9
80	0x32	50
81	0xa1	-95
82	0x0d	13
83	0xda	-38
84	0xe9	-23
85	0xf4	-12
86	0xd5	-43
87	0xdf	-33
88	0xae	-82
89	0xfb	-5
90	0x2e	46
91	0x14	20
92	0xd7	-41
93	0xf6	-10
94	0x2e	46
95	0x36	54
96	0x81	-127
97	0x53	83
98	0xf1	-15
99	0x1d	29
100	0xdd	-35
101	0x1f	31
102	0xde	-34
103	0xf6	-10
104	0x2c	44
105	0x1a	26
106	0x1d	29
107	0x25	37
108	0xd9	-39
109	0xe8	-24
110	0x20	32
111	0xfe	-2
112	0x0b	11
113	0x0d	13
114	0xfd	-3
115	0xfb	-5
116	0xd8	-40
117	0x10	16
118	0xd0	-48
119	0xde	-34
120	0xed	-19
121	0xe8	-24
122	0xe9	-23
123	0xdc	-36
124	0x35	53
125	0xc1	-63
126	0xdb	-37
127	0xbe	-66
128	0xff	-1
129	0xd1	-47
130	0x21	33
131	0x18	24
132	0x35	53
133	0xeb	-21
134	0xf0	-16
135	0x12	18
136	0x20	32
137	0x35	53
138	0x20	32
139	0x14	20
140	0xbb	-69
141	0xfd	-3
142	0xea	-22
143	0xe2	-30
144	0x1c	28
145	0xea	-22
146	0xf5	-11
147	0xf4	-12
148	0x04	4
149	0xeb	-21
150	0xb4	-76
151	0xf0	-16
152	0xe3	-29
153	0xf3	-13
154	0x13	19
155	0x21	33
156	0xfd	-3
157	0xf5	-11
158	0xed	-19
159	0xa8	-88
160	0x1c	28
161	0x36	54
162	0xd5	-43
163	0x27	39
164	0x1c	28
165	0x35	53
166	0xfb	-5
167	0x2d	45
168	0xf1	-15
169	0xc2	-62
170	0x04	4
171	0xea	-22
172	0x0e	14
173	0xf5	-11
174	0xff	-1
175	0xdb	-37
176	0x07	7
177	0x2a	42
178	0xd5	-43
179	0xd1	-47
180	0xde	-34
181	0x1b	27
182	0xf8	-8
183	0x10	16
184	0xb1	-79
185	0x16	22
186	0xf1	-15
187	0xe2	-30
188	0x2b	43
189	0xf1	-15
190	0x31	49
191	0x01	1
192	0xfe	-2
193	0xe6	-26
194	0x13	19
195	0x08	8
196	0xd2	-46
197	0xe2	-30
198	0xad	-83
199	0x1c	28
200	0xf2	-14
201	0x10	16
202	0x14	20
203	0xc8	-56
204	0xd5	-43
205	0x28	40
206	0xf2	-14
207	0xfd	-3
208	0xed	-19
209	0x2a	42
210	0xdf	-33
211	0x33	51
212	0x08	8
213	0xe0	-32
214	0xdc	-36
215	0xfa	-6
216	0x09	9
217	0x11	17
218	0x1c	28
219	0x18	24
220	0xf7	-9
221	0x07	7
222	0x22	34
223	0x01	1
224	0x22	34
225	0xef	-17
226	0xf6	-10
227	0x22	34
228	0xdc	-36
229	0x0c	12
230	0x0c	12
231	0x3a	58
232	0x01	1
233	0x1d	29
234	0x10	16
235	0xf9	-7
236	0x0b	11
237	0xf2	-14
238	0x0a	10
239	0x30	48
240	0x27	39
241	0x95	-107
242	0xac	-84
243	0x10	16
244	0xe8	-24
245	0x15	21
246	0xdd	-35
247	0x20	32
248	0x12	18
249	0x0e	14
250	0x0a	10
251	0x14	20
252	0xfb	-5
253	0x21	33
254	0xf9	-7
255	0xea	-22

tfl.pseudo_qconst6 i1 [224, 1344]
0	0x33	51
1	0x00	0
2	0xe4	-28
3	0xc7	-57
4	0x0e	14
5	0x29	41
6	0x25	37
7	0xe8	-24
8	0x02	2
9	0x3a	58
10	0xdb	-37
11	0x28	40
12	0x0e	14
13	0xcf	-49
14	0x18	24
15	0x3c	60
16	0x0f	15
17	0x15	21
18	0x01	1
19	0xe7	-25
20	0x06	6
21	0x01	1
22	0x22	34
23	0x00	0
24	0x17	23
25	0x35	53
26	0xe7	-25
27	0x29	41
28	0x37	55
29	0xf3	-13
30	0x38	56
31	0x1b	27
32	0x2f	47
33	0x0e	14
34	0x34	52
35	0xc0	-64
36	0x15	21
37	0xf1	-15
38	0x2c	44
39	0xc1	-63
40	0x0f	15
41	0x19	25
42	0x81	-127
43	0x44	68
44	0x0a	10
45	0xd3	-45
46	0x33	51
47	0x23	35
48	0x38	56
49	0x60	96
50	0x35	53
51	0x0c	12
52	0x2a	42
53	0xfd	-3
54	0x0c	12
55	0xf5	-11
56	0x2c	44
57	0x15	21
58	0xe8	-24
59	0x13	19
60	0x24	36
61	0x37	55
62	0x28	40
63	0x11	17
64	0x02	2
65	0x1d	29
66	0xf9	-7
67	0xf9	-7
68	0x0f	15
69	0x2f	47
70	0x1a	26
71	0x28	40
72	0x0b	11
73	0x0a	10
74	0xfc	-4
75	0x27	39
76	0x01	1
77	0x1f	31
78	0x2e	46
79	0x24	36
80	0x0c	12
81	0x06	6
82	0xe7	-25
83	0x01	1
84	0x40	64
85	0x1c	28
86	0x14	20
87	0xff	-1
88	0x0f	15
89	0x0e	14
90	0x07	7
91	0x23	35
92	0x1b	27
93	0xbb	-69
94	0xf8	-8
95	0xf0	-16
96	0xfc	-4
97	0x0a	10
98	0xf8	-8
99	0x00	0
100	0xe8	-24
101	0x1c	28
102	0xef	-17
103	0x26	38
104	0xec	-20
105	0xfe	-2
106	0xd7	-41
107	0x20	32
108	0xf2	-14
109	0x1e	30
110	0x0b	11
111	0xeb	-21
112	0xff	-1
113	0xe8	-24
114	0x0a	10
115	0xdb	-37
116	0x29	41
117	0x12	18
118	0xee	-18
119	0xde	-34
120	0xf1	-15
121	0xf4	-12
122	0xe0	-32
123	0x24	36
124	0xfd	-3
125	0x00	0
126	0xfb	-5
127	0x08	8
128	0xeb	-21
129	0xfc	-4
130	0xf8	-8
131	0x0b	11
132	0xfb	-5
133	0x0b	11
134	0xf0	-16
135	0xef	-17
136	0xbc	-68
137	0x05	5
138	0xd5	-43
139	0xfa	-6
140	0x09	9
141	0xa7	-89
142	0x1a	26
143	0x03	3
144	0xfb	-5
145	0x2a	42
146	0xf1	-15
147	0xf1	-15
148	0xc8	-56
149	0x09	9
150	0x06	6
151	0x2e	46
152	0xe2	-30
153	0xfd	-3
154	0xe7	-25
155	0xf8	-8
156	0x14	20
157	0xc3	-61
158	0x08	8
159	0xec	-20
160	0xe9	-23
161	0x2a	42
162	0xf5	-11
163	0x3a	58
164	0xe8	-24
165	0x08	8
166	0xeb	-21
167	0x77	119
168	0xe0	-32
169	0xec	-20
170	0x16	22
171	0x14	20
172	0xea	-22
173	0x15	21
174	0x0c	12
175	0xf8	-8
176	0x0f	15
177	0xf4	-12
178	0xf9	-7
179	0x23	35
180	0x21	33
181	0xcc	-52
182	0xf6	-10
183	0x2b	43
184	0xd3	-45
185	0xee	-18
186	0x15	21
187	0x07	7
188	0xf1	-15
189	0x37	55
190	0x03	3
191	0xfd	-3
192	0x07	7
193	0xd3	-45
194	0xd7	-41
195	0xfe	-2
196	0x22	34
197	0x1d	29
198	0x0c	12
199	0xe3	-29
200	0xd7	-41
201	0x0f	15
202	0x25	37
203	0xf9	-7
204	0x0c	12
205	0xfa	-6
206	0x08	8
207	0x01	1
208	0xd3	-45
209	0xbc	-68
210	0x0f	15
211	0x15	21
212	0xdb	-37
213	0xf2	-14
214	0xf8	-8
215	0x28	40
216	0xe2	-30
217	0xfe	-2
218	0xf0	-16
219	0x04	4
220	0xe6	-26
221	0x06	6
222	0xd9	-39
223	0xfe	-2
224	0xff	-1
225	0x22	34
226	0x0f	15
227	0x1f	31
228	0xe2	-30
229	0xea	-22
230	0x08	8
231	0xfc	-4
232	0x19	25
233	0xfd	-3
234	0x55	85
235	0xee	-18
236	0xf8	-8
237	0x40	64
238	0xec	-20
239	0xf7	-9
240	0xe2	-30
241	0xec	-20
242	0x0a	10
243	0x09	9
244	0x05	5
245	0x02	2
246	0xce	-50
247	0x20	32
248	0x0f	15
249	0x0f	15
250	0x2b	43
251	0xf9	-7
252	0xfe	-2
253	0x19	25
254	0xe5	-27
255	0xd5	-43

functional_1_1/conv2d_2_1/convolution i1 [96, 3, 3, 3]
0	0x5b	91
1	0xfe	-2
2	0x67	103
3	0xb9	-71
4	0xfb	-5
5	0x47	71
6	0x48	72
7	0xa7	-89
8	0x94	-108
9	0xad	-83
10	0xe1	-31
11	0x81	-127
12	0x9b	-101
13	0xa9	-87
14	0xad	-83
15	0xf4	-12
16	0xc3	-61
17	0x73	115
18	0x8c	-116
19	0x2e	46
20	0x60	96
21	0xc7	-57
22	0xe4	-28
23	0x03	3
24	0xc0	-64
25	0xc1	-63
26	0x75	117
27	0xf3	-13
28	0x08	8
29	0x5c	92
30	0xc8	-56
31	0x1f	31
32	0xe1	-31
33	0xd5	-43
34	0x25	37
35	0xd4	-44
36	0x2c	44
37	0x20	32
38	0x7f	127
39	0xd6	-42
40	0x50	80
41	0xdd	-35
42	0xdf	-33
43	0x46	70
44	0x0a	10
45	0x35	53
46	0x1a	26
47	0x5f	95
48	0xd9	-39
49	0x36	54
50	0xf5	-11
51	0x19	25
52	0x13	19
53	0x29	41
54	0x09	9
55	0x09	9
56	0x27	39
57	0xe9	-23
58	0xed	-19
59	0xbe	-66
60	0xef	-17
61	0xfd	-3
62	0x58	88
63	0x10	16
64	0x1c	28
65	0x0a	10
66	0x1f	31
67	0x2e	46
68	0xe4	-28
69	0x02	2
70	0x2d	45
71	0x7f	127
72	0xe8	-24
73	0x02	2
74	0x45	69
75	0xe4	-28
76	0x1a	26
77	0xe1	-31
78	0x0b	11
79	0xef	-17
80	0x47	71
81	0x1e	30
82	0x01	1
83	0xd5	-43
84	0xe1	-31
85	0x16	22
86	0xd0	-48
87	0x00	0
88	0x81	-127
89	0xf3	-13
90	0x22	34
91	0x12	18
92	0xb1	-79
93	0xe7	-25
94	0xc4	-60
95	0xca	-54
96	0xef	-17
97	0x97	-105
98	0xf4	-12
99	0x0a	10
100	0x3b	59
101	0x91	-111
102	0x10	16
103	0xca	-54
104	0xd0	-48
105	0x46	70
106	0x87	-121
107	0xb3	-77
108	0x0e	14
109	0xff	-1
110	0xd9	-39
111	0x09	9
112	0x06	6
113	0xc8	-56
114	0x18	24
115	0xf0	-16
116	0xc0	-64
117	0x1e	30
118	0x31	49
119	0x2b	43
120	0x13	19
121	0x1b	27
122	0x90	-112
123	0x1c	28
124	0x0f	15
125	0x81	-127
126	0xe2	-30
127	0x05	5
128	0xf7	-9
129	0xca	-54
130	0xf5	-11
131	0xdd	-35
132	0xd0	-48
133	0xbc	-68
134	0x8c	-116
135	0xdd	-35
136	0x03	3
137	0x54	84
138	0x25	37
139	0x4c	76
140	0xe0	-32
141	0x1f	31
142	0xbd	-67
143	0xe8	-24
144	0x2f	47
145	0xdc	-36
146	0x5b	91
147	0x1f	31
148	0x59	89
149	0x8c	-116
150	0xf6	-10
151	0xe2	-30
152	0x13	19
153	0xf3	-13
154	0xfa	-6
155	0x7f	127
156	0x2d	45
157	0x5a	90
158	0x8f	-113
159	0x17	23
160	0xe3	-29
161	0x40	64
162	0xe0	-32
163	0x82	-126
164	0xd1	-47
165	0xbe	-66
166	0xfb	-5
167	0xd3	-45
168	0xf7	-9
169	0x0e	14
170	0x99	-103
171	0xe5	-27
172	0x99	-103
173	0x8a	-118
174	0xbc	-68
175	0x12	18
176	0xcd	-51
177	0xcc	-52
178	0x81	-127
179	0x2b	43
180	0x3f	63
181	0xd7	-41
182	0xdb	-37
183	0xee	-18
184	0xaf	-81
185	0xb8	-72
186	0xc3	-61
187	0xda	-38
188	0x0c	12
189	0xbc	-68
190	0xfa	-6
191	0xcd	-51
192	0xe7	-25
193	0x21	33
194	0xa9	-87
195	0xcc	-52
196	0x39	57
197	0x16	22
198	0x04	4
199	0x39	57
200	0x18	24
201	0x2e	46
202	0xd8	-40
203	0x10	16
204	0x04	4
205	0xcc	-52
206	0x3d	61
207	0xb9	-71
208	0x86	-122
209	0x81	-127
210	0xf6	-10
211	0xab	-85
212	0xae	-82
213	0x39	57
214	0x42	66
215	0xca	-54
216	0xc2	-62
217	0xef	-17
218	0x08	8
219	0x04	4
220	0xef	-17
221	0x56	86
222	0x14	20
223	0x12	18
224	0x87	-121
225	0xcc	-52
226	0xf9	-7
227	0x05	5
228	0x21	33
229	0xf0	-16
230	0x35	53
231	0x1c	28
232	0xf2	-14
233	0x81	-127
234	0xc6	-58
235	0xf1	-15
236	0x0d	13
237	0x0d	13
238	0xf2	-14
239	0x2d	45
240	0x1d	29
241	0x07	7
242	0x8c	-116
243	0xf6	-10
244	0xfd	-3
245	0xbe	-66
246	0xbe	-66
247	0x0b	11
248	0x81	-127
249	0xc9	-55
250	0x38	56
251	0x06	6
252	0x0f	15
253	0xea	-22
254	0xcd	-51
255	0xca	-54
